13 - Neural Network/model/weights_best.pth (torch_old, 873182 bytes, 6 tensors)

model.1.0.weight f4 [256, 784]
0	0x3e1e8b61	0.15482856
1	0x3db97ada	0.09056635
2	0x3d8e4a4d	0.069477655
3	0xbe09f5e1	-0.13472702
4	0xbc3fe11b	-0.011711384
5	0xbe021849	-0.12704577
6	0xbe3b57e7	-0.18295251
7	0xbd397e6b	-0.045286577
8	0x3dcc2e1b	0.099697314
9	0x3ccc851b	0.024965813
10	0x3d2c5764	0.04207553
11	0xbc4c8924	-0.012483869
12	0xbe2920a9	-0.16516365
13	0xbec3b277	-0.38222095
14	0xbebdbb6f	-0.37057063
15	0xbe86f0d2	-0.26355606
16	0x3d8d0389	0.0688544
17	0x3d92ede8	0.07174283
18	0x3d3f2359	0.04666457
19	0x3df71026	0.12063627
20	0x3d2dad35	0.04240151
21	0xbdfff345	-0.12497572
22	0xbe90f136	-0.2830903
23	0xbe068f03	-0.13140492
24	0xbcdbbddd	-0.026823932
25	0xbe226ba3	-0.15861373
26	0xbd7be4f2	-0.061497636
27	0x3e9636d0	0.29338694
28	0x3df297e7	0.11845379
29	0x3d92d710	0.07169926
30	0xbc557041	-0.013027252
31	0xbe14b944	-0.14523798
32	0xbe2dcf8e	-0.16973707
33	0xbe5cdbde	-0.21568248
34	0xbe223b73	-0.1584299
35	0x3dd66c4e	0.10469876
36	0xbcbbb458	-0.022913143
37	0x3c35c86c	0.011095148
38	0x3e04fc60	0.12986898
39	0x3d8d0e6f	0.068875186
40	0xbd16af05	-0.036788005
41	0xbd0265a2	-0.031835206
42	0xbdfaadfb	-0.122402154
43	0xbdba3507	-0.090921454
44	0x3c098a41	0.008394779
45	0x3e1f5b87	0.15562259
46	0x3e442fec	0.19158906
47	0x3e3641dd	0.17798562
48	0x3e74e212	0.23914364
49	0x3e0602c5	0.13086994
50	0xbe02afd5	-0.12762387
51	0xbdff4728	-0.12464744
52	0xbe146b73	-0.14494114
53	0xbdcb6a7f	-0.09932422
54	0xbdca52d0	-0.098790765
55	0x3c276c27	0.010218657
56	0x3e8cea17	0.27522346
57	0x3d84d579	0.06486029
58	0xbd6bc45b	-0.057560306
59	0xbd7fe072	-0.062469907
60	0xbd1e56fc	-0.038657174
61	0xbd597d0b	-0.053097766
62	0x3c5c7df9	0.013457769
63	0x3c511894	0.012762208
64	0xbc98f9e5	-0.018673846
65	0xbc8f1d1e	-0.017469939
66	0x3cccd77c	0.025005095
67	0xbc2dcb9d	-0.010607627
68	0x3d43a6ee	0.04776662
69	0x3d5fdbd9	0.054653022
70	0xbd69fb33	-0.057124328
71	0x3d593da3	0.053037297
72	0xbbf838a9	-0.007575114
73	0xbd1c56ac	-0.038168594
74	0xbd2c7855	-0.042106945
75	0x3d8de7c5	0.06928972
76	0x3e0619d6	0.13095793
77	0x3e12e48f	0.14345
78	0x3e2503c0	0.16114712
79	0x3e34895b	0.17630522
80	0x3da9ead5	0.08296744
81	0xbdadd389	-0.08487613
82	0xbe463c44	-0.19358927
83	0xbe05e0be	-0.13074014
84	0xbdc5b59d	-0.096537806
85	0xbd0134c8	-0.031544477
86	0x3d71f331	0.059069816
87	0xbd530b6a	-0.051524557
88	0x3c80fede	0.01574653
89	0x3d2a99bf	0.04165053
90	0x3d2a3909	0.0415583
91	0xbe00e3bf	-0.12586878
92	0x3c6b6d02	0.014369251
93	0x3d97d5ab	0.07413801
94	0xbc89cbe3	-0.016820854
95	0xbda16c0d	-0.07881937
96	0xbadf00a6	-0.0017013743
97	0xbdf0d6a2	-0.11759688
98	0xbe0b6f6d	-0.13616724
99	0xbd410dbd	-0.047132242
100	0xbdce68cc	-0.10078582
101	0x3b06d171	0.0020571614
102	0xbc90cf23	-0.017676895
103	0x3cc1ca09	0.023655908
104	0x3cb9e356	0.02269141
105	0x3c962d2e	0.01833209
106	0x3e26b3b9	0.16279496
107	0x3e4cacdc	0.19987816
108	0x3e58678d	0.21133251
109	0x3d4364f2	0.04770369
110	0xbd3672e3	-0.04454316
111	0xbe49dcc5	-0.19713123
112	0xbd992002	-0.07476808
113	0x3de4d3b2	0.1117319
114	0x3d845485	0.06461433
115	0x3db2bfd3	0.08727994
116	0xbcfbc74f	-0.030734686
117	0x3def6056	0.116882965
118	0xbcbd4081	-0.023102047
119	0xbe77b931	-0.24191739
120	0x3c95a058	0.018264934
121	0x3d484c36	0.048900805
122	0xbd269ea0	-0.04067862
123	0xbd5f8f0e	-0.054579787
124	0x3d96b94d	0.07359562
125	0x3c0bd474	0.0085345395
126	0xbdbc256d	-0.09186826
127	0x3bcffee8	0.006347526
128	0xbdb2bb69	-0.08727152
129	0xbd51b41f	-0.051197167
130	0x3d2a53d7	0.041583862
131	0x3db3e72a	0.087843254
132	0xbca57bba	-0.020200599
133	0xbd512a23	-0.051065575
134	0x3e05e297	0.13074718
135	0x3d2a997f	0.04165029
136	0x3e5617e3	0.2090755
137	0x3ddaf127	0.106905274
138	0xbc090cfc	-0.008364912
139	0x3bc099bb	0.005877701
140	0xbc6a1817	-0.01428797
141	0x3dc96f5d	0.09835694
142	0x3d72fda1	0.05932391
143	0x3c217e10	0.009856716
144	0x3db2c8e9	0.08729727
145	0x3e0ffa01	0.14060213
146	0xbda98cf7	-0.0827884
147	0xbe537191	-0.20648791
148	0xba553f5c	-0.00081347465
149	0xbc022f61	-0.007945866
150	0xbd841372	-0.064490214
151	0xbdd0a242	-0.10187198
152	0xbd9b6a16	-0.07588594
153	0x3d3a65b7	0.04550716
154	0x3c86054a	0.016359944
155	0xbd7c48b7	-0.061592784
156	0xbda81bb1	-0.08208407
157	0xbcfd2bad	-0.030904615
158	0x3cf31abb	0.029675832
159	0x3d97f732	0.07420196
160	0xbdc8e43b	-0.098091565
161	0xbd3faefd	-0.04679774
162	0x3d49bb68	0.04925099
163	0x3dd45622	0.10367991
164	0x3e2c4e63	0.16826777
165	0x3e0e15a9	0.1387545
166	0x3db94fd0	0.09048426
167	0x3e17871e	0.14797637
168	0xbcc955c1	-0.024577023
169	0x3e2906af	0.16506456
170	0x3dc06fe5	0.09396342
171	0x3e1397a8	0.14413321
172	0x3d8cbde4	0.06872156
173	0x3e1b7a16	0.15183291
174	0xbda87687	-0.08225732
175	0xbdde37f6	-0.108505175
176	0x3de6b38b	0.11264714
177	0x3ca80f80	0.020515203
178	0x3c857daa	0.016295273
179	0xbda3f007	-0.08004766
180	0xbd0c2e32	-0.034223743
181	0x3c1a56ef	0.009420141
182	0xbd27f77a	-0.041007496
183	0xbd099f2e	-0.03359907
184	0xbd3dd701	-0.04634762
185	0xbd6091a6	-0.0548264
186	0x3db65079	0.08902068
187	0x3de28df3	0.11062231
188	0xbd261a52	-0.040552445
189	0xbd6d0940	-0.05787015
190	0x3d76facb	0.06029777
191	0x3defbc18	0.11705798
192	0x3e27f41f	0.16401719
193	0x3e617101	0.22015764
194	0x3dc932c1	0.09824134
195	0x3d83d3df	0.064368956
196	0x3e2aa8d0	0.1666596
197	0x3e377310	0.17914987
198	0x3e792c36	0.24333271
199	0x3e89a2eb	0.2688211
200	0x3d443f0c	0.04791169
201	0x3dfa9219	0.12234897
202	0xbcbfc44d	-0.023409033
203	0x3c8482a2	0.016175572
204	0x3e06dab1	0.13169362
205	0x3d9ae895	0.07563893
206	0x3d4538f1	0.048150007
207	0xbbc62a9d	-0.0060475604
208	0x3d2b90e2	0.041886218
209	0x3d1a4657	0.037664738
210	0xbdfb053d	-0.122568585
211	0xbda99fb6	-0.082824156
212	0xbc928454	-0.017885365
213	0x3b2556fe	0.0025228853
214	0x3d74f56f	0.059804376
215	0x3de118e4	0.10991076
216	0xbc504fc6	-0.012714332
217	0xbd02ade7	-0.031904127
218	0x3d90deb8	0.0707373
219	0x3e0e61ec	0.13904542
220	0x3e4e6298	0.20154798
221	0x3e317fe7	0.17333947
222	0x3dd84667	0.10560303
223	0x3de285ac	0.11060652
224	0x3d892687	0.06696802
225	0x3e867dd4	0.26267874
226	0x3e80cea3	0.2515765
227	0x3e4d24ce	0.20033571
228	0x3df6e12e	0.12054668
229	0x3e1034e2	0.14082673
230	0xbc5d33e9	-0.013501146
231	0x387a761c	5.9714643e-05
232	0x3e015567	0.12630235
233	0x3d3b3190	0.045701563
234	0x3bcc222b	0.006229659
235	0xbd23011f	-0.03979599
236	0xbcee93f3	-0.029123282
237	0xbd42bceb	-0.047543447
238	0xbd738cb3	-0.059460353
239	0xbd40dde8	-0.047086626
240	0xbc456f6e	-0.012050493
241	0x3c5f1237	0.013615183
242	0x3bb5d793	0.00554938
243	0x3d95d970	0.073168635
244	0xbd593498	-0.053028673
245	0xbdace153	-0.08441415
246	0x3e10f188	0.14154637
247	0x3d99fc2c	0.07518801
248	0x3e7e5f93	0.24841146
249	0x3e259be9	0.16172756
250	0x3e024819	0.12722816
251	0x3d9e0202	0.07715227
252	0x3e2a5f91	0.16638018
253	0x3e9d2336	0.30690926
254	0x3e37f50c	0.17964572
255	0x3e3378ca	0.17526546

model.1.0.bias f4 [256]
0	0x3e9357e7	0.28778002
1	0x3e434415	0.1906894
2	0x3db08bf7	0.08620446
3	0xbd478166	-0.04870739
4	0x3eaef922	0.34174448
5	0x3e2a13cd	0.16609116
6	0xbe113b75	-0.14182837
7	0x3ea2d4fe	0.31803125
8	0x3dda32ee	0.10654245
9	0x3e9a820c	0.30177343
10	0xbde13f1b	-0.109983645
11	0xbe5c5362	-0.21516183
12	0x3ebc5698	0.36784816
13	0x3dcbc961	0.09950519
14	0x3e93b328	0.28847623
15	0xbcc6102a	-0.02417763
16	0x3e8cd3cd	0.2750534
17	0xbd562232	-0.052278705
18	0xbe34677b	-0.176176
19	0x3e7a573a	0.24447337
20	0x3ee8f401	0.4549866
21	0x3da2231d	0.079168536
22	0x3e8dd834	0.27704012
23	0x3d7c66cd	0.061621476
24	0xbebd0119	-0.369149
25	0x3cc34d94	0.023840703
26	0xbd934544	-0.07190946
27	0x3e9ef422	0.31045634
28	0x3dd3447c	0.10315797
29	0x3e04baaa	0.12961832
30	0xbc720f06	-0.01477409
31	0x3e71715e	0.23578402
32	0x3ea4b8db	0.32172284
33	0x3e6b2fa6	0.22967395
34	0x3cb16035	0.02165232
35	0xbe4a1320	-0.19733858
36	0x3d6aea96	0.057352625
37	0xbd0b5be5	-0.034023184
38	0x3d37f5e1	0.044912223
39	0x3e5b7779	0.21432294
40	0x3c85d5d7	0.016337318
41	0x3e7050f6	0.23468384
42	0x3dd11e5d	0.102108695
43	0xbafb795c	-0.0019185948
44	0x3efdff8b	0.49609026
45	0x3de95fa4	0.11395195
46	0xbda00e70	-0.07815254
47	0xbcd6b434	-0.026208974
48	0x3ecc00f0	0.39844465
49	0xbc0a9ee3	-0.008460733
50	0xbc94ecaa	-0.018179256
51	0xbe4c8706	-0.19973382
52	0x3ddc54aa	0.10758336
53	0x3e1fb5df	0.15596722
54	0x3d21e34a	0.0395234
55	0x3df600c0	0.12011862
56	0x3e97e1da	0.296645
57	0x3be7387a	0.007056293
58	0x3dc44db6	0.09585135
59	0x3e257c7a	0.16160765
60	0xbea693d2	-0.32534653
61	0x3e6fac37	0.23405538
62	0x3e4b5602	0.19857028
63	0x3dd89ff1	0.105773814
64	0x3d890c34	0.06691781
65	0xbd185645	-0.037191648
66	0xbe29c678	-0.16579616
67	0x3ec9df72	0.39428288
68	0x3e28ae88	0.16472828
69	0xbd48b518	-0.04900083
70	0xbcf69841	-0.030101897
71	0xbb352ef2	-0.002764639
72	0xbd8f5618	-0.06998843
73	0xbe510710	-0.2041285
74	0x3e70b54d	0.23506661
75	0x3bf87897	0.007582735
76	0x3e30609e	0.17224357
77	0x3e2fd111	0.17169596
78	0x3e9402d4	0.28908408
79	0x3ec22b06	0.3792345
80	0xbe134ba3	-0.14384322
81	0xbd33584e	-0.043785386
82	0xba8e996b	-0.0010879462
83	0x3ea39536	0.31949776
84	0x3e6264ae	0.22108719
85	0x3ea32899	0.3186691
86	0x3e99edb5	0.3006417
87	0x3e1d5d1d	0.15367551
88	0x3e61ac5d	0.22038408
89	0xbca3f614	-0.0200148
90	0xbda7b78d	-0.081893064
91	0xbe11a5ac	-0.14223355
92	0xbea7bd83	-0.32761773
93	0x3eb08957	0.34479782
94	0xbe27a082	-0.16369823
95	0xbe29180f	-0.16513084
96	0xbcd37bdf	-0.025815902
97	0x3ddfab90	0.10921395
98	0x3e82cb61	0.2554579
99	0x3be69e12	0.0070378864
100	0xbd1b4161	-0.037904147
101	0x3e393976	0.18088326
102	0xbe295e66	-0.16539916
103	0xbbef3c3b	-0.007300881
104	0x3d086004	0.033294693
105	0x3ee37db4	0.4443184
106	0x3e8a3e3b	0.27000603
107	0xbe2cb52b	-0.16865985
108	0xbd1fcaca	-0.039011754
109	0x3e3c76a0	0.18404627
110	0x3c3d7f49	0.011565992
111	0xbe9a61d2	-0.30152756
112	0xbd506caa	-0.05088488
113	0xbcd404a1	-0.025881113
114	0xbc2505f6	-0.010072222
115	0x3e282987	0.16422091
116	0x3df29c3a	0.11846204
117	0x3c3d13b3	0.011540341
118	0x3e21a26e	0.15784618
119	0x3e65b208	0.22431195
120	0xbcae1efc	-0.021255009
121	0xbdbf8bf0	-0.09352863
122	0xbe0fe030	-0.14050364
123	0xbe593ff2	-0.212158
124	0x3e4df184	0.20111662
125	0x3e15d2b3	0.14631157
126	0xbd1755c1	-0.036947016
127	0x3edde65c	0.43339813
128	0xbe11e9e5	-0.1424938
129	0x3d9e7e43	0.07738926
130	0x3f090558	0.5352378
131	0xbc435180	-0.011921287
132	0xbddda931	-0.10823286
133	0x3db91c7a	0.090386346
134	0xbceb04b8	-0.028688774
135	0x3dc1ce97	0.09463232
136	0xbc85b547	-0.016321791
137	0xbe88d734	-0.26726687
138	0x3dc7614a	0.09735353
139	0x3b98f844	0.0046682674
140	0x3e5927c9	0.21206583
141	0x3c998c0d	0.01874354
142	0x3e02883c	0.12747282
143	0xbe240e61	-0.1602111
144	0xbd5e128b	-0.054216903
145	0x3d1b6efc	0.03794764
146	0xbcc962ec	-0.024583302
147	0x3c2e2346	0.010628527
148	0x3cdb5845	0.026775489
149	0x3e051e69	0.12999882
150	0x3eb96674	0.36210978
151	0x3df52308	0.11969572
152	0x3e4867f6	0.19570908
153	0x3c8c0e67	0.017096711
154	0xbd103890	-0.035210192
155	0x3daff16c	0.085909694
156	0x3db7bdd9	0.089717574
157	0xbe264712	-0.16238049
158	0x3db2e6b0	0.087354064
159	0x3e746a42	0.23868659
160	0xbe59a9a8	-0.21256125
161	0xbc1fa66c	-0.009744268
162	0x3e504ca7	0.2034174
163	0x3eb25086	0.3482706
164	0x3eaea9e2	0.34113985
165	0x3eba03a6	0.3633091
166	0xbde56dff	-0.11202621
167	0x3bd3145c	0.006441636
168	0x3e973d35	0.29538885
169	0xbdece1c8	-0.11566502
170	0x3e868d98	0.26279902
171	0xbdcfd35a	-0.10147734
172	0x3e753b3e	0.2394838
173	0xbe4bc6b0	-0.19900012
174	0xbd6c1695	-0.057638723
175	0x3e7d4e32	0.2473686
176	0x3d8d468b	0.06898221
177	0x3e103a46	0.1408473
178	0xbe578035	-0.21045001
179	0x3ea022fe	0.31276697
180	0xbeabf292	-0.33583504
181	0x3dc8ecad	0.09810767
182	0x3de71024	0.112823755
183	0x3cc57486	0.024103414
184	0xbe1ddf4e	-0.15417215
185	0x3e50ee62	0.20403436
186	0x3edf9a23	0.43672284
187	0x3e64d101	0.22345354
188	0x3b07b54d	0.002070743
189	0x3dfb0868	0.12257463
190	0x3e65b1b3	0.22431068
191	0x3e8ec1d0	0.27882242
192	0x3dc1d250	0.09463942
193	0x3e18ba20	0.14914751
194	0xbd22f938	-0.039788455
195	0x3e0def34	0.1386078
196	0xbd505623	-0.050863396
197	0x3db92300	0.09039879
198	0x3e1c2573	0.1524866
199	0x3d41a0f3	0.047272634
200	0x3e983e37	0.29734966
201	0x3e90614c	0.28199232
202	0xbbfdfe22	-0.0077512423
203	0x3e5f82ca	0.21827236
204	0xbd4dcf96	-0.050246798
205	0x3dd20e21	0.10256601
206	0x3e226bd5	0.15861447
207	0x3cedd6cd	0.029033089
208	0xbe975e92	-0.2956434
209	0x3b698075	0.0035629545
210	0x3e986cc0	0.2977047
211	0xbda5cc8a	-0.08095653
212	0x3e10e6a1	0.14150478
213	0x3e92d600	0.28678894
214	0xbe178fc3	-0.14800934
215	0x3e868167	0.262706
216	0xbc91037d	-0.017701859
217	0xbd175287	-0.03694394
218	0x3ec5a4c8	0.3860228
219	0x3dfdc3b2	0.123908415
220	0xbe5d6add	-0.21622796
221	0x3e4ec87b	0.20193665
222	0x3d9861d9	0.07440538
223	0x3e954f91	0.29162267
224	0xbe313e9e	-0.17309043
225	0xbd5e7efc	-0.05432032
226	0x3e5465bb	0.20741932
227	0xbca9a878	-0.020710215
228	0xbe3a2d6e	-0.18181393
229	0xbd161f4f	-0.036650952
230	0x3e35fbb7	0.17771803
231	0x3e56a21f	0.20960282
232	0x3e372015	0.17883332
233	0x3e5be7e5	0.2147518
234	0xbe022c75	-0.12712272
235	0x3ddbb8d3	0.10728612
236	0x3d8e330a	0.06943329
237	0xbc328b05	-0.010897403
238	0xbdfa1961	-0.12211872
239	0x3c5acdfe	0.013354776
240	0x3d6e8388	0.058230907
241	0x3df5ac90	0.11995804
242	0x3ca6a7d8	0.020343706
243	0x3e81d7fc	0.25360096
244	0x3e709937	0.23495947
245	0xbe4ef859	-0.20211925
246	0x3ce4de5b	0.027938059
247	0x3e3e06cc	0.1855728
248	0x3ec2f7ac	0.38079584
249	0x3e9106dd	0.2832555
250	0x3ecc8057	0.39941666
251	0xbe1cb091	-0.1530173
252	0x3e302dc9	0.17204966
253	0xbd5e369e	-0.054251306
254	0x3e35d712	0.17757824
255	0x3d9ca40c	0.07648477

model.2.0.weight f4 [64, 256]
0	0xbc554ff4	-0.013019551
1	0xbe0b6a18	-0.1361469
2	0x3d437a58	0.047724098
3	0x3e3a6046	0.18200788
4	0xbe1b7f40	-0.15185261
5	0x3df9e371	0.12201584
6	0xbd46dde8	-0.04855147
7	0x3e297312	0.16547802
8	0x3d99ddfb	0.075130425
9	0x3d918e25	0.0710719
10	0x3d7922f3	0.060824346
11	0xbe142e3d	-0.14470764
12	0x3dc4fa42	0.096180454
13	0x3ccb81da	0.024842191
14	0xbd923b1c	-0.071401805
15	0xbd4830e2	-0.048874743
16	0x3e23961f	0.15975235
17	0x3c1803ae	0.009278221
18	0x3d69ee9a	0.057112314
19	0xbcdc7f1d	-0.026916081
20	0xbe5ee4fb	-0.21767037
21	0xbe5d0324	-0.2158323
22	0xbe7d3a93	-0.24729376
23	0xbd3ba259	-0.045809124
24	0xbc1f08d8	-0.009706698
25	0x3ddcd65d	0.10783074
26	0x3bc90427	0.006134528
27	0xbeb16013	-0.3464361
28	0xbd663280	-0.056200504
29	0xbe22029a	-0.15821305
30	0x3dd924ec	0.106027454
31	0xbdc1738f	-0.09445869
32	0x3dca7582	0.09885694
33	0xbdc1359b	-0.094340526
34	0x3d26732a	0.040637173
35	0xbe11c6eb	-0.14236037
36	0x3c83aba7	0.016073061
37	0x3dbb8347	0.091558985
38	0x3d257ba6	0.040401123
39	0x3cebba6c	0.028775416
40	0x3adacaae	0.0016692483
41	0x3dc15702	0.094404235
42	0xbd97ac5c	-0.07405922
43	0xbdb364e2	-0.08759476
44	0xbe6118cd	-0.21982117
45	0xbe74eff0	-0.23919654
46	0x3cc14415	0.023592034
47	0xbc72e660	-0.0148254335
48	0xbcf3fa5e	-0.02978247
49	0x3d04871b	0.03235541
50	0xbdd1d909	-0.10246474
51	0xbe6658da	-0.22494832
52	0x3d9b063d	0.07569549
53	0xbd81e0eb	-0.06341728
54	0x3d462de9	0.048383627
55	0xbe02f509	-0.12788786
56	0xbbf93070	-0.007604651
57	0xbe6acd9f	-0.2293
58	0xbce115fa	-0.0274763
59	0x3d996f65	0.0749195
60	0xbcc7ccc8	-0.02438964
61	0xbd947f8d	-0.07250891
62	0xbe65333d	-0.22382827
63	0xbd81f7d4	-0.063460976
64	0xbd72e7fd	-0.059303273
65	0xbce470e1	-0.027885856
66	0xbe98b7dd	-0.29827777
67	0x3db6c5ac	0.08924422
68	0xbbb74f07	-0.0055941376
69	0x3e0bd4d1	0.13655402
70	0x3d7eb0ca	0.062180318
71	0x3dca95f7	0.09891885
72	0x3e70cf9b	0.23516695
73	0x3e13c1ab	0.14429347
74	0x3e6e47e4	0.23269612
75	0x3cf3b2b9	0.029748308
76	0xbaa413d7	-0.001251812
77	0x3cca309e	0.024681386
78	0xbdcdaaf4	-0.10042372
79	0xbe8841a3	-0.26612577
80	0xbe923fb5	-0.2856423
81	0x3e7878c1	0.24264814
82	0xbd4f4181	-0.05059958
83	0x3e23245d	0.1593184
84	0xbd3a6462	-0.04550589
85	0xbe522de3	-0.20525317
86	0xbcc80fea	-0.02442165
87	0x3db8d840	0.090256214
88	0x3d34bcc6	0.04412534
89	0xbbd45255	-0.0064795413
90	0xbe431387	-0.19050418
91	0x3cd27c65	0.025694082
92	0xbc0ece46	-0.008716172
93	0x3d57ad48	0.05265549
94	0xbdd30776	-0.103041574
95	0xbdb15f72	-0.08660783
96	0xbcf6fd6e	-0.030150142
97	0x3e308781	0.1723919
98	0x3c6539a1	0.013990791
99	0x3d5c87b4	0.053840354
100	0xbd858526	-0.06519537
101	0x3d24811b	0.040162187
102	0x3de7e462	0.113228574
103	0xbde1e867	-0.11030655
104	0xbe118ef0	-0.14214683
105	0x3e6d978c	0.23202342
106	0xbc2d676d	-0.010583741
107	0x3de36f9b	0.111052714
108	0x3d0ac157	0.03387579
109	0x3cfac219	0.030610131
110	0x3d12d10c	0.035843894
111	0xbe2d5a66	-0.16929016
112	0x3dca8d6b	0.098902546
113	0x3ce84f9b	0.028358271
114	0xbe34539c	-0.1761002
115	0xbd757df2	-0.059934564
116	0xbd4e02f9	-0.050295804
117	0x3c145976	0.009054532
118	0xbd835890	-0.06413376
119	0xbd8a34ef	-0.067483775
120	0x3b79d033	0.0038118481
121	0x3d10ae2a	0.035322346
122	0x3d87233d	0.06598518
123	0xbd0bca24	-0.034128323
124	0x3cafee95	0.02147607
125	0xbdef26f6	-0.11677353
126	0x39d485e8	0.0004053556
127	0x3da98224	0.082767755
128	0x3cfc2d82	0.030783419
129	0xbd06d392	-0.032916613
130	0xbe283e7f	-0.1643009
131	0x3cad21e3	0.021134323
132	0xbe5d39c9	-0.21604075
133	0x3d4a3aea	0.04937259
134	0x3b54a8b0	0.0032449178
135	0x3dd555e7	0.10416775
136	0xbcba9ae4	-0.022778936
137	0xbce8a3fe	-0.02839851
138	0xbe73be1f	-0.23802994
139	0x3dbcc8aa	0.09217961
140	0x3c54aff4	0.012981404
141	0xbe4a3abd	-0.1974897
142	0x3e649c52	0.22325256
143	0x3daeab4a	0.085287645
144	0x3d48b706	0.04900267
145	0xbdcab450	-0.09897673
146	0xbc9a2fec	-0.018821679
147	0x3cec249e	0.028826054
148	0xbc832285	-0.016007671
149	0x3e0a7f06	0.13525018
150	0x3e1babdb	0.15202276
151	0x3da82c6e	0.08211599
152	0xbd33f0d7	-0.043930855
153	0x3bac9f7f	0.005268037
154	0xbe7f09ec	-0.24906129
155	0x3cdb7462	0.026788894
156	0x3c6e5eaf	0.0145489415
157	0x3da0f5bf	0.07859372
158	0x3d780732	0.060553737
159	0xbe07ce36	-0.13262257
160	0xbe222c2e	-0.15837166
161	0xbc247938	-0.010038666
162	0x3b6de1d1	0.0036297927
163	0xbe3324a8	-0.17494452
164	0xbd09955c	-0.033589706
165	0x3bc9be40	0.006156713
166	0xbd7d30b5	-0.06181403
167	0xbe27050a	-0.16310516
168	0xbe07a8c7	-0.13247977
169	0xbe131914	-0.14365035
170	0x3d7c789a	0.061638452
171	0x3dadf6dd	0.08494351
172	0x3e13e21d	0.14441724
173	0x3d1356d9	0.035971496
174	0xbbe7c5a5	-0.0070731216
175	0x3dd41a6a	0.103566006
176	0x3cded7db	0.027202537
177	0xbdd7c743	-0.10536053
178	0xbe10b671	-0.14132096
179	0xbbf8b3e7	-0.0075898054
180	0x3d0e9f53	0.034819912
181	0x3d81645e	0.06317972
182	0x3dd5e55b	0.10444137
183	0x3bfd6f61	0.0077342247
184	0x3d085111	0.033280436
185	0x3dba6737	0.09101718
186	0x3d79e5d6	0.061010204
187	0xbcc2c3db	-0.023775032
188	0x3c828ee1	0.01593727
189	0xbd47d9b8	-0.048791617
190	0xbe6dd3d6	-0.2322534
191	0xbe49bd6b	-0.19701163
192	0x3d459362	0.04823626
193	0x3d530b4c	0.051524445
194	0xbd24eae5	-0.040263075
195	0xbe601b5b	-0.21885435
196	0xbd7ee701	-0.06223202
197	0x3d8ba3ad	0.06818328
198	0xbd4463fa	-0.047946908
199	0xbdf3012a	-0.118654564
200	0xbe0b03a9	-0.13575615
201	0x3d3f713a	0.04673884
202	0x3d1c0fae	0.03810089
203	0xbc2065c1	-0.009789885
204	0x3d92221e	0.071354136
205	0xbde44733	-0.11146393
206	0x3dc92ee1	0.098233946
207	0x3d9bca6b	0.076069675
208	0x3ba2b317	0.004965197
209	0x3d592629	0.053014908
210	0xbd7d41bf	-0.06183028
211	0x3d01db08	0.031703025
212	0xbda3f517	-0.080057316
213	0xbe9f8eb1	-0.31163552
214	0xbd79377f	-0.06084394
215	0x3c7b48ed	0.015337211
216	0xbcd5e65f	-0.026110826
217	0xbd0cf361	-0.03441179
218	0xbdc9bcc3	-0.098504566
219	0x3dafd89b	0.08586236
220	0x3bf97ec4	0.0076139886
221	0x3d970fcd	0.07376061
222	0xbdedb341	-0.116064556
223	0x3c6ba8a9	0.014383473
224	0xbd5201ee	-0.05127137
225	0xbe8cdabf	-0.2751064
226	0x3de46856	0.11152713
227	0xbc981d44	-0.018568642
228	0xbdae63e5	-0.08515147
229	0x3c9a102c	0.01880654
230	0xbd418f72	-0.04725594
231	0x3de19bec	0.11016068
232	0xbe777e97	-0.24169384
233	0xbe2b9a76	-0.16758141
234	0xbe2657d2	-0.16244438
235	0x3dbd5a40	0.092457294
236	0x3b20194d	0.0024429143
237	0xbd66215c	-0.056184158
238	0x3d6a0e79	0.05714271
239	0x3d66db8b	0.056361716
240	0xbc3bdef7	-0.011466733
241	0xbcd80405	-0.026369104
242	0xbcf0bf32	-0.029388044
243	0x3cf08dc6	0.029364478
244	0x3dcd5d6e	0.10027586
245	0xbdb0f3a8	-0.08640224
246	0xbe041492	-0.12898472
247	0x3ddb8e26	0.10720472
248	0xbe5e0a35	-0.21683581
249	0xbdb39453	-0.08768525
250	0x3de020a8	0.10943729
251	0xbd7e7056	-0.06211885
252	0x3d9efa9b	0.07762643
253	0x3dfb4cdd	0.1227052
254	0x3e2062f3	0.15662746
255	0xbddb1654	-0.10697618

model.2.0.bias f4 [64]
0	0x3e985e3b	0.29759392
1	0x3ea4b6d0	0.32170725
2	0xbd08a901	-0.0333643
3	0x3cc6e569	0.024279313
4	0x3d91d5da	0.07120867
5	0xbc5892d8	-0.013218604
6	0x3e54c17a	0.2077693
7	0x3ddfd65a	0.10929556
8	0x3d14e5c7	0.036351945
9	0x3e69dfc9	0.22839274
10	0x3e351232	0.17682722
11	0xbd6f385e	-0.058403365
12	0x3e822022	0.2541514
13	0x3e1ec77f	0.15505789
14	0x3e3a1784	0.18173033
15	0x3e2077d7	0.15670715
16	0x3ece28f1	0.4026561
17	0x3da3c286	0.07996087
18	0xbc436a0d	-0.01192714
19	0x3eb3ca0d	0.3511509
20	0x3e3fa0d7	0.187137
21	0x3c518788	0.012788661
22	0x3ea11645	0.31462303
23	0x3e1da8fc	0.15396494
24	0x3e5354f1	0.20637871
25	0x3e0ffd34	0.14061433
26	0x3ec64f3f	0.38732335
27	0x3e921b18	0.28536296
28	0x3e50c760	0.20388556
29	0x3dc43dcb	0.095820986
30	0x3e7b4b2d	0.24540396
31	0xb93fa1a2	-0.00018275392
32	0x3e3e33b9	0.18574418
33	0x3e767c4d	0.24070854
34	0x3e10f59e	0.14156196
35	0x3e3d660f	0.18495964
36	0x3e22e962	0.15909341
37	0x3e28a01b	0.16467325
38	0x3e353678	0.1769656
39	0x3e14d6fa	0.14535132
40	0x3e11d8d2	0.14242867
41	0x3e8075be	0.2508983
42	0x39d5043a	0.00040629675
43	0x3e010fe8	0.12603724
44	0x3cc7decf	0.024398236
45	0x3e8dd842	0.27704054
46	0x3d4bbfaf	0.04974335
47	0x3e999470	0.2999606
48	0x3eadf8cd	0.33978882
49	0x3e08e020	0.13366747
50	0x3e8511af	0.25990054
51	0x3e6b76c5	0.22994526
52	0x3e20d105	0.15704735
53	0x3de068bc	0.109574765
54	0xbd9efad6	-0.07762687
55	0x3df83b11	0.12120641
56	0x3e8036a7	0.25041696
57	0x3e97739c	0.2958039
58	0x3da96bcc	0.08272514
59	0x3e2146a4	0.15749604
60	0x3eb0a405	0.34500137
61	0x3e972e73	0.29527625
62	0x3e9a84f2	0.30179554
63	0x3e972bb6	0.29525536

model.3.0.weight f4 [10, 64]
0	0xbf09e680	-0.5386734
1	0xbe53daa0	-0.20688868
2	0x3dea477f	0.11439418
3	0x3d8c711f	0.06857514
4	0xbee944fa	-0.45560437
5	0x3d580931	0.05274314
6	0x3e238a60	0.15970755
7	0xbea00ebf	-0.3126125
8	0x3e4a9b5b	0.19785826
9	0xbda6f4a6	-0.08152132
10	0x3dbeccbe	0.09316395
11	0xbe21064b	-0.15725057
12	0xbedf8877	-0.43658802
13	0x3deef871	0.1166848
14	0x3e02d887	0.12777911
15	0x3e1770c1	0.14789106
16	0x3e2d8c63	0.16948085
17	0x3b91ed80	0.004453361
18	0x3e8094ab	0.25113425
19	0xbe402824	-0.18765312
20	0xbdf2b0ca	-0.11850126
21	0x3e141efc	0.14464945
22	0xbe09bc89	-0.13450827
23	0xbe0c898d	-0.13724346
24	0xbe5a233b	-0.21302502
25	0xbe34b333	-0.17646484
26	0xbef6c35f	-0.4819593
27	0xbeaf6d88	-0.34263253
28	0xbf004e1c	-0.50119185
29	0xbd05e4b0	-0.032688797
30	0xbf0f27ad	-0.55919915
31	0x3e54a3b6	0.20765576
32	0xbeaaa52b	-0.33329138
33	0xbe3250b4	-0.17413598
34	0xbf06846e	-0.5254582
35	0xbdbfa286	-0.09357171
36	0xbe7a61b0	-0.24451327
37	0xbeae2bc1	-0.34017757
38	0x3e035518	0.1282543
39	0xbe051f17	-0.13000141
40	0xbeae93cc	-0.34097135
41	0xbea1470f	-0.31499526
42	0xbe106bb7	-0.1410359
43	0x3dfd168e	0.123578176
44	0xbe38406d	-0.17993326
45	0xbe8a50d3	-0.2701479
46	0xbf04afcb	-0.5183074
47	0xbe99ac0a	-0.30014068
48	0xbedbe9e2	-0.42951876
49	0x3e02f193	0.12787466
50	0x3dd87cd3	0.10570683
51	0x3e09de02	0.13463596
52	0xbe527915	-0.20554002
53	0xbe08ab65	-0.13346632
54	0x3e26e207	0.1629716
55	0x3de102d0	0.109868646
56	0xbc8caebb	-0.017173162
57	0xbeb81b5f	-0.35958382
58	0xbb635e75	-0.0034693752
59	0x3d95a0c4	0.07306054
60	0x3da70756	0.08155696
61	0xbe822fe3	-0.2542716
62	0xbe91f000	-0.28503418
63	0x3db12223	0.08649089
64	0xbda947c9	-0.08265645
65	0x3d5214fc	0.051289544
66	0x3ded8855	0.11598269
67	0x3c75d53d	0.015004453
68	0x3db58ca0	0.08864713
69	0xbeb21feb	-0.34789976
70	0xbef5fec6	-0.4804594
71	0xbd4eaaa8	-0.05045572
72	0x3e201d35	0.15636142
73	0xbe183048	-0.14862168
74	0xbe3317c5	-0.17489536
75	0x3e70b0fa	0.23505011
76	0x3d7d99d7	0.06191429
77	0xbe829335	-0.25502935
78	0xbd8af564	-0.06785086
79	0x3e3daacb	0.18522184
80	0x3d719fbb	0.05899022
81	0x3e219ad7	0.15781723
82	0xbea149fc	-0.31501758
83	0x3deb01b5	0.11474935
84	0x3e1c534a	0.15266147
85	0xbe9bdf92	-0.30444008
86	0xbe1788b3	-0.1479824
87	0x3e638f9c	0.22222751
88	0xbe2c4201	-0.16822053
89	0xbe4df6e4	-0.20113713
90	0xbe58e3f8	-0.21180713
91	0xbe89e103	-0.26929483
92	0xbe999599	-0.29996946
93	0x3e967c64	0.29391778
94	0x3bfce224	0.0077173878
95	0x3d983ae6	0.07433109
96	0xbeac82f3	-0.33693656
97	0xbde99795	-0.11405865
98	0xbec49069	-0.38391426
99	0x3d81c3cd	0.06336174
100	0xbe3cb1fa	-0.18427268
101	0x3d4a30d5	0.049362976
102	0xbd96642c	-0.07343325
103	0x3e1b3829	0.15158142
104	0x3e18d139	0.14923562
105	0x3e531431	0.20613171
106	0x3e6e8ebb	0.23296635
107	0x3da7e6d6	0.08198325
108	0x3e609a22	0.21933797
109	0x3dc34c51	0.095360406
110	0xbec1e271	-0.37868074
111	0x3e0c6a19	0.13712348
112	0x3d9875e2	0.07444359
113	0xbe98f4f7	-0.29874393
114	0xbe93a1b6	-0.28834313
115	0xbea86470	-0.32889128
116	0xbdd3c14e	-0.10339604
117	0x3df32445	0.11872152
118	0x3e26f0f7	0.16302858
119	0x3d7ac553	0.06122334
120	0xbea61cfd	-0.3244399
121	0x3c5f99a0	0.013647467
122	0x3c866765	0.016406724
123	0xbe0d4372	-0.1379526
124	0x3e0890c0	0.13336468
125	0x3e02eac7	0.12784873
126	0xbe8e9e12	-0.27854973
127	0x3d41daa1	0.04732764
128	0x3dfc0c85	0.123070754
129	0xbe871add	-0.26387683
130	0x3d8fd1fd	0.07022474
131	0xbd088d29	-0.033337746
132	0x3dbe5796	0.092940494
133	0x3d782288	0.060579807
134	0x3d8a6e7b	0.06759354
135	0x3da2b323	0.07944324
136	0xbe012581	-0.12611963
137	0x3dd427dc	0.10359165
138	0xbe5e529a	-0.21711197
139	0x3e1b4910	0.1516459
140	0x3dbb37b0	0.09141481
141	0xbe9c6913	-0.30548915
142	0xbebfbfb7	-0.37450954
143	0xbe9fcd98	-0.31211543
144	0xbe04a240	-0.12952518
145	0xbc5b4601	-0.013383389
146	0x3df6a880	0.120438576
147	0xbe9529ff	-0.29133603
148	0x3d47d99a	0.048791505
149	0x3d8c7699	0.06858558
150	0x3c0bb7f0	0.008527741
151	0x3bb9d1ea	0.0056707757
152	0x3ddf240d	0.10895548
153	0x3d1491e8	0.03627196
154	0xbd918fd3	-0.071075104
155	0xbe834bc8	-0.25643754
156	0x3d83c922	0.064348474
157	0x3dc9fba4	0.0986245
158	0x3d81b46d	0.063332416
159	0x3cf6e62c	0.030139051
160	0x3dd90283	0.10596182
161	0xbd941d4b	-0.0723215
162	0x3da86b20	0.082235575
163	0x3ce94da3	0.028479403
164	0x3dabaffd	0.083831765
165	0x3de996e6	0.11405735
166	0xbd95bbdd	-0.07311223
167	0x3d2c5c40	0.042080164
168	0x3dc4c238	0.09607357
169	0xbe5d0922	-0.21585515
170	0xbe2410f4	-0.16022092
171	0xbec808f1	-0.39069322
172	0x3d868c62	0.06569745
173	0x3ded013b	0.115725
174	0x3db9ac4b	0.090660654
175	0xbe4505e4	-0.19240528
176	0xbbe5021a	-0.006988776
177	0x3db78f94	0.08962932
178	0xbe983230	-0.2972579
179	0xbe9c35df	-0.3050985
180	0x3e125ca4	0.14293152
181	0xbe9a7bbc	-0.30172527
182	0xba7849b8	-0.0009471434
183	0xbe628b1e	-0.22123381
184	0xbda725ea	-0.081615284
185	0x3e0195d2	0.12654808
186	0x3dc54468	0.09632188
187	0x3c08b962	0.00834498
188	0xbe4bd618	-0.19905889
189	0xbc61e37d	-0.013787148
190	0xbd61f6de	-0.05516707
191	0xbe886596	-0.26640004
192	0x3e069ea9	0.13146462
193	0x3d20316e	0.03910964
194	0xbedfdb8a	-0.43722183
195	0xbe2b6fef	-0.16741918
196	0x3dd65d68	0.104670346
197	0x3da031b4	0.0782198
198	0xbefb1d14	-0.49045622
199	0xbe7e8361	-0.24854805
200	0xbecd065d	-0.40043917
201	0xbe3eaf4a	-0.18621555
202	0x3dcb5d7c	0.0992994
203	0x3ca44517	0.020052476
204	0xbe550e1c	-0.20806164
205	0xbe71af72	-0.23602083
206	0x3b43510c	0.0029802946
207	0x3e0dcb5a	0.13847104
208	0x3d6372ab	0.055529278
209	0xbe693517	-0.22774158
210	0xbb1cbb46	-0.0023915335
211	0x3dad9a14	0.08476654
212	0x3dccc8b4	0.099992186
213	0xbe31c511	-0.17360331
214	0xbc51ccb0	-0.012805149
215	0xbdbb85f0	-0.09156406
216	0x3df90208	0.121585906
217	0xbec2c09a	-0.38037568
218	0x3de5230d	0.11188326
219	0xbd14b047	-0.036300924
220	0x3d88e382	0.06684019
221	0xbe12464d	-0.1428463
222	0x3d6f5cad	0.058437992
223	0xbe9415b4	-0.28922808
224	0x3dccb595	0.099955715
225	0xbea5e71f	-0.32402894
226	0xbdf32cf1	-0.11873806
227	0x3c859ee8	0.016311124
228	0x3d825842	0.0636449
229	0x3dbcd0fe	0.092195496
230	0x3df343ec	0.118781894
231	0xbe6a2264	-0.22864681
232	0x3da9cdd2	0.0829121
233	0xbe9fbfcf	-0.31201026
234	0x3bf8b85c	0.0075903367
235	0x3a2d3a28	0.0006608092
236	0xbe833c0e	-0.25631756
237	0xbdede819	-0.11616535
238	0xbe0103ce	-0.12599108
239	0x3dce81b4	0.10083333
240	0x3e0d1aca	0.1377975
241	0xbd0e56cc	-0.034750745
242	0x3d9534ee	0.07285486
243	0x3d8236af	0.06358086
244	0x3e074e91	0.13213564
245	0xbe9aa780	-0.30205917
246	0xbeb2c776	-0.34917802
247	0x3dff48a4	0.12465027
248	0x3e458ccd	0.19291992
249	0xbe84e1ae	-0.2595343
250	0x3dc8fec9	0.098142214
251	0x3e3f8a49	0.18705095
252	0xbeb8a7ec	-0.36065614
253	0x3db4bac9	0.08824689
254	0x3de60060	0.1123054
255	0xbed7bc0c	-0.42135656

model.3.0.bias f4 [10]
0	0xbe9a4d9f	-0.30137345
1	0xbe741e34	-0.23839647
2	0xbe2125ac	-0.15737027
3	0x3e7ec7fc	0.24880975
4	0xbd4e92ec	-0.050433084
5	0x3dbf580c	0.093429655
6	0x3e01cf39	0.12676705
7	0x3e98b8fe	0.29828638
8	0x3d4308bb	0.047615748
9	0xbea9d0d9	-0.3316715
