13 - Neural Network/model/wright.pth (torch_old, 2575 bytes, 8 tensors)

0.weight f4 [16, 7]
0.3341792 0.11089162 -0.028924556 0.05475839 0.0017522966 0.07746538 -0.042630535 0.4944101
0.16888668 -0.0054089366 0.033015396 0.3087071 1.1875652 -0.02236656 -0.23109578 0.020479012
-0.22199824 0.100291915 -0.11201183 0.09966243 -0.06776341 0.26976004 -0.19277652 -0.19397926
-0.19399098 0.2925442 0.108390935 0.31297323 -0.26842216 -0.32260668 -0.25446224 -0.21879546
0.13173814 0.1164641 0.27026144 -0.088511065 -0.22678314 0.31084317 -0.39002177 0.024642529
-0.38408566 0.07412499 -0.2866188 -0.18649545 0.07417831 0.041303042 -0.110566325 0.16949624
0.19451448 -0.30222958 -0.033315867 0.2853447 0.015588444 -0.4542856 -1.3296974 -0.17869033
0.08124883 -0.042930674 -0.23609525 0.0076293726 -0.22217344 -0.2759416 -0.1791029 0.0027511735
-0.3097028 0.17750369 0.39771163 -0.0024343422 -1.9626571 -0.01274442 -0.108262606 0.050859734
-0.2861959 -0.14014293 -0.19471736 0.00090135116 -0.12102845 -0.022538502 -0.22039978 -0.22325113
-0.18975075 -0.11133225 -0.25671434 0.27271405 0.43333864 0.13406691 -0.027344188 0.017398754
0.21281265 0.2665955 -0.031448156 0.2837738 -0.24856997 0.18733685 -0.018565763 -0.11972477
-1.9658382 0.37321252 -0.25562504 -0.0522388 0.18559402 -0.06919992 -0.040400583 -1.2205621
-0.15961683 -0.23415415 -0.1879718 0.106268704 -0.1397312 0.34176633 0.38320532 0.19413531
00000000: 8919 ab3e 251b e33d 31f3 ecbc 554a 603d
00000010: 51ad e53a 2ba6 9e3d 5b9d 2ebd 5223 fd3e
00000020: a1f0 2c3e 733d b1bb 273b 073d db0e 9e3e
00000030: 2302 983f 133a b7bc 5fa4 6cbe 9ac3 a73c
00000040: 8253 63be d965 cd3d 7566 e5bd d11b cc3d
00000050: 8bc7 8abd fd1d 8a3e 3567 45be 80a2 46be
00000060: 92a5 46be 5ac8 953e 11fc dd3d 073e a03e
00000070: a16e 89be b42c a5be e048 82be eb0b 60be
00000080: 5de6 063e bb84 ee3d b55f 8a3e 4a45 b5bd
00000090: d739 68be d626 9f3e efb0 c7be 21df c93c
000000a0: e0a6 c4be d8ce 973d b3bf 92be aaf8 3ebe
000000b0: ccea 973d 612d 293d 9970 e2bd 6c90 2d3e
000000c0: ce2e 473e d6bd 9abe 3876 08bd b318 923e
000000d0: ac66 7f3c 1f98 e8be 8633 aabf 99fa 36be
000000e0: c965 a63d 13d8 2fbd f4c2 71be d1ff f93b
000000f0: 6f81 63be 3848 8dbe c066 37be 084d 343b
00000100: 5e91 9ebe 87c3 353e dca0 cb3e 7c89 1fbb
00000110: 5938 fbbf f9cd 50bc c9b8 ddbd 4c52 503d
00000120: 4588 92be a181 0fbe fd63 47be a748 6c3a
00000130: c4dd f7bd aaa2 b8bc 7bb0 61be f29b 64be
00000140: 054e 42be 2a02 e4bd 1070 83be 2da1 8b3e
00000150: 90de dd3e d648 093e eb00 e0bc d587 8e3c
00000160: 8feb 593e 357f 883e c8cf 00bd cd4a 913e
00000170: 2089 7ebe 3bd5 3f3e 3a17 98bc 4332 f5bd
00000180: 96a0 fbbf b615 bf3e 49e1 82be 5af8 55bd
00000190: 5c0c 3e3e b0b8 8dbd 157b 25bd 613b 9cbf
000001a0: 9872 23be 1bc6 6fbe ae7b 40be 68a3 d93d
000001b0: b215 0fbe fffb ae3e 7d33 c43e 68cb 463e

0.bias f4 [16]
-0.51854587 -1.1377368 -0.17584604 0.29563802 0.07147448 0.5296437 -0.31543857 1.5203743
-0.048794493 0.09287572 0.27937332 0.072513744 -1.4864842 0.14282095 2.3568542 -0.2583014
00000000: 6cbf 04bf 5ca1 91bf fc10 34be de5d 973e
00000010: 3661 923d bb96 073f 2a81 a1be a09b c23f
00000020: bcdc 47bd a035 be3d 050a 8f3e 1682 943d
00000030: 1d45 bebf a83f 123e b3d6 1640 1540 84be

3.weight f4 [8, 16]
-0.015931629 -0.0118215885 -0.07367093 -0.16072197 0.07672361 1.5195475 -0.16956785 0.5796415
0.111136116 0.9395161 -0.07661464 0.112287864 -0.003939274 0.11302542 0.26960415 -0.16094719
0.13986364 -0.09971691 -0.06410999 0.1375144 0.18488574 -0.24101119 -0.07213151 -0.54556113
-0.012845285 -0.26344955 0.06028775 -0.19539644 -0.13147254 -0.2478841 0.026912399 0.07138166
-0.013294567 -0.008329735 -0.19270882 -0.070125856 0.0726516 1.6117693 0.106166065 0.5201424
-0.12937327 0.8821147 0.20810984 0.031120721 0.00043944467 0.13999388 0.2679912 -0.17928176
-0.014964377 -0.1233494 -0.043127168 -0.21401532 0.14398317 0.04968891 0.08708303 -0.39522287
-0.21232322 -0.35960087 0.16042517 0.10328681 0.033007603 -0.29209167 -0.035650406 -0.041212734
-0.006927708 -0.18432014 -0.2012244 0.088067465 -0.10562353 -0.13068973 -0.13330102 -0.44504857
-0.15141833 -0.23601316 0.07136266 -0.063936986 0.122338966 -0.39140588 -0.045719072 0.019337576
0.0019280027 -0.10127936 -0.20480521 0.12036514 -0.149776 -0.10587419 0.0829705 -0.31675163
-0.16501851 -0.20598143 -0.101704374 0.07982936 0.13529618 -0.25880274 -0.0058938786 0.06997628
-0.0058675166 0.12957181 -0.21356562 0.1335549 0.16096845 -0.1930318 -0.06319562 -0.40064204
0.048368473 -0.30953372 -0.21412408 -0.048831876 -0.003219149 -0.39039096 -0.04072352 0.04773307
-0.068296194 -0.20444165 0.17651772 0.18035285 -0.033747893 -0.034190584 -0.087800235 -0.19427808
-0.20935611 0.012081437 -0.1181185 -0.1383044 -0.036766287 -0.10027773 -0.097546816 -0.02286206
00000000: 0c83 82bc 56af 41bc c9e0 96bd 4d94 24be
00000010: 4521 9d3d 8880 c23f 32a3 2dbe 6363 143f
00000020: 559b e33d 2184 703f 23e8 9cbd 2ef7 e53d
00000030: 0615 81bb df79 e73d 8e09 8a3e 57cf 24be
00000040: 6a38 0f3e 6138 ccbd 194c 83bd 93d0 0c3e
00000050: b052 3d3e a3cb 76be afb9 93bd e5a9 0bbf
00000060: 0875 52bc dce2 86be 4af0 763d 0116 48be
00000070: bda0 06be 54d5 7dbe 6477 dc3c 8c30 923d
00000080: 75d1 59bc 7179 08bc 7655 45be 259e 8fbd
00000090: 5dca 943d 754e ce3f 986d d93d 0d28 053f
000000a0: 6d7a 04be 45d2 613f bf1a 553e e2f0 fe3c
000000b0: 4465 e639 8e5a 0f3e 2436 893e a395 37be
000000c0: 252d 75bc 9c9e fcbd 1da6 30bd d526 5bbe
000000d0: 5370 133e 9986 4b3d 9658 b23d a75a cabe
000000e0: 426b 59be 9b1d b8be 7f46 243e 0988 d33d
000000f0: fb32 073d 0a8d 95be 2906 12bd afce 28bd
00000100: d401 e3bb 6bbe 3cbe c50d 4ebe b75c b43d
00000110: 2651 d8bd 87d3 05be 1080 08be 68dd e3be
00000120: 680d 1bbe 6fad 71be 9626 923d 65f1 82bd
00000130: da8c fa3d 5a66 c8be ec43 3bbd d669 9e3c
00000140: 09b5 fc3a 8e6b cfbd 75b8 51be 0082 f63d
00000150: e15e 19be 91d4 d8bd 70ec a93d 452d a2be
00000160: 9dfa 28be ccec 52be 624a d0bd 937d a33d
00000170: 158b 0a3e cb81 84be 7021 c1bb b94f 8f3d
00000180: 4c44 c0bb 79ae 043e f2b0 5abe 9ec2 083e
00000190: ead4 243e 21aa 45be b56c 81bd f420 cdbe
000001a0: 051e 463d 347b 9ebe 5843 5bbe ef03 48bd
000001b0: 5cf8 52bb 53e1 c7be b5cd 26bd c083 433d
000001c0: e0de 8bbd 2759 51be 10c1 343e 6bae 383e
000001d0: 3b3b 0abd 6d0b 0cbd 9cd0 b3bd d5f0 46be
000001e0: 7361 56be 38f1 453c 1de8 f1bd ab9f 0dbe
000001f0: 3f98 16bd 695e cdbd a0c6 c7bd 3749 bbbc

3.bias f4 [8]
0.8184387 -0.2932394 0.43611884 -0.9640186 -0.6350788 -0.9985111 -1.2926334 -0.123403534
00000000: 3385 513f 7a23 96be f84a df3e ecc9 76bf
00000010: 8694 22bf 6c9e 7fbf 0375 a5bf feba fcbd

6.weight f4 [4, 8]
0.0060799033 0.3865225 0.011477663 -0.09857266 -0.012883896 0.28013337 0.19395994 0.17740363
0.5011993 -0.10446961 0.62346864 -0.6980757 -0.0019173527 0.042261 0.050187316 -0.16279958
-0.021903826 -0.11267467 0.0027669978 -0.057740524 -0.009642375 0.23812214 0.1742635 -0.23141079
-0.012226227 0.28781843 -0.0010976326 0.05023147 0.21355118 -0.048118122 -0.03317498 -0.02648279
00000000: ed39 c73b 47e6 c53e cf0c 3c3c 76e0 c9bd
00000010: fa16 53bc a46d 8f3e 6f9d 463e 4ca9 353e
00000020: 994e 003f 2af4 d5bd a49b 1f3f 17b5 32bf
00000030: ae4f fbba df19 2d3d 3791 4d3d efb4 26be
00000040: a76f b3bc fac1 e6bd 8556 353b 5481 6cbd
00000050: 0dfb 1dbc 4ad6 733e 2272 323e f3f6 6cbe
00000060: 8350 48bc f05c 933e 70de 8fba 84bf 4d3d
00000070: 29ad 5a3e 8217 45bd 7de2 07bd 70f2 d8bc

6.bias f4 [4]
-1.1204439 0.0016856011 -1.0080473 -0.8005311
00000000: b56a 8fbf 63ef dc3a b207 81bf 9bef 4cbf

9.weight f4 [2, 4]
-1.0183989 0.5389756 -1.118374 -0.9080451 0.8923082 -0.004812339 1.1462371 0.94616866
00000000: e55a 82bf 4efa 093f e126 8fbf a575 68bf
00000010: 4f6e 643f d3b0 9dbb e6b7 923f 1c38 723f

9.bias f4 [2]
0.30532214 -0.4923334
00000000: 2f53 9c3e 2013 fcbe
