13 - Neural Network/model_janen/weights_best.pth (torch_old, 910 bytes, 4 tensors)

model.0.weight f4 [5, 7]
0	0xbe0b0533	-0.13576202
1	0xbe8f0a30	-0.2793746
2	0xbc917874	-0.017757632
3	0x3e5bf651	0.21480681
4	0xbebc3278	-0.36757255
5	0xbe18670d	-0.14883061
6	0x3c911287	0.01770903
7	0xbd1bbea5	-0.03802361
8	0x3e8bf605	0.27336136
9	0x3e0b7ece	0.13622591
10	0xbed7f985	-0.42182556
11	0xbe870ec0	-0.2637844
12	0x3e1dc4fb	0.15407173
13	0xbec3d453	-0.38247928
14	0x3e0a6982	0.1351681
15	0xbd9650c4	-0.073396236
16	0xbea3e608	-0.32011437
17	0xbdce504a	-0.10073908
18	0xbebaf2be	-0.36513323
19	0x3d929b25	0.07158498
20	0x3e4c851d	0.19972654
21	0xbea36c76	-0.31918687
22	0x3e422ac8	0.18961632
23	0xbcd16d6b	-0.02556487
24	0x3e4b0c4d	0.19828911
25	0xbda47d47	-0.08031707
26	0x3e3a0095	0.18164285
27	0x3ccc1223	0.024910992
28	0xbd71d98d	-0.059045363
29	0xbeae9c32	-0.34103543
30	0x3ccf1a20	0.025281012
31	0x3ea4083d	0.32037535
32	0xbe92d863	-0.28680715
33	0x3d720625	0.05908789
34	0xbdee28b9	-0.11628861

model.0.bias f4 [5]
0	0x3eaff5b7	0.34367153
1	0xbee84df0	-0.45371962
2	0xbc502eb0	-0.012706444
3	0x3eda2fc0	0.42614555
4	0x3e1c8be6	0.15287742

model.2.weight f4 [2, 5]
0	0xbe9f835f	-0.31154916
1	0x3cf6c9bd	0.030125493
2	0x3d810370	0.06299484
3	0xbe710d66	-0.23540267
4	0x3e7b1bb9	0.24522294
5	0xbe937bc4	-0.28805363
6	0x3db12d7b	0.08651253
7	0xbca64a35	-0.020299057
8	0xbe89c8ea	-0.26911098
9	0x3d9205b8	0.07129997

model.2.bias f4 [2]
0	0x3d855f3e	0.06512307
1	0xbd612b0f	-0.054972704
