16 - Recurrent Neural Network/model/weights_best.pth (torch_old, 599440 bytes, 9 tensors)

hidden.weight_ih_l0 f4 [384, 1]
0	0x3e185c05	0.14878853
1	0xbdf137ea	-0.11778243
2	0x3c66223c	0.014046248
3	0x3e0133ad	0.12617369
4	0x3e5621d7	0.20911346
5	0x3c100fce	0.008792831
6	0x3e140744	0.14455897
7	0xbdebd12b	-0.11514505
8	0x3e57f203	0.21088414
9	0x3d265950	0.04061252
10	0xbd2b63a5	-0.041843075
11	0xbc369a94	-0.011145253
12	0x3e2c3cf8	0.16820133
13	0xbdb9d3df	-0.09073614
14	0xbca498ab	-0.020092329
15	0x3e0beed4	0.13665324
16	0x3e1f4ac1	0.1555586
17	0xbd6e63c9	-0.05820063
18	0x3deaea7f	0.11470508
19	0x3dce948e	0.10086928
20	0x3e648d31	0.22319485
21	0xbca68d71	-0.020331116
22	0xbd9ef8d9	-0.07762308
23	0x3c4162dc	0.011803355
24	0xbcd6e5fa	-0.026232708
25	0xbd118ecf	-0.035536584
26	0xbdcd7e19	-0.10033817
27	0xbca43834	-0.020046331
28	0x3d02ceec	0.031935617
29	0xbd95d594	-0.073161274
30	0x3e05853c	0.13039106
31	0xbb41351e	-0.0029481123
32	0xbd2ffe54	-0.042967156
33	0x3e5e5e86	0.21715745
34	0xbd2deea6	-0.04246392
35	0x3d78ad58	0.06071219
36	0x3e29910d	0.16559239
37	0xbd0720db	-0.032990318
38	0x3e2982dd	0.16553827
39	0xbdbf2fa1	-0.09335256
40	0x3ea32c00	0.31869507
41	0xbd9360af	-0.07196175
42	0x3cd67b0c	0.02618172
43	0xbe6caba1	-0.23112346
44	0x3d27da7d	0.04097985
45	0xbe06e82f	-0.13174509
46	0x3de0291b	0.1094534
47	0x3e978881	0.29596332
48	0x3d4e0bdf	0.05030429
49	0x3e4d0c0c	0.20024127
50	0xbe379d8c	-0.17931193
51	0xbdd7116a	-0.10501368
52	0xbdb0ed32	-0.086389914
53	0xbdb39c69	-0.08770067
54	0xbe360746	-0.17776212
55	0x3e453028	0.19256651
56	0x3e6089a7	0.2192751
57	0xbc91ff0d	-0.017821813
58	0xbdc2680d	-0.09492502
59	0xbd278106	-0.04089453
60	0x3e7dfe28	0.24803984
61	0xbe1d3704	-0.15353018
62	0xbc8c5580	-0.017130613
63	0xbdef54a5	-0.116860665
64	0x3e0093d2	0.12556389
65	0xbcaece6f	-0.02133867
66	0xbe3d9a07	-0.18515788
67	0x3e7a4ce2	0.24443391
68	0xbbed5c43	-0.0072436645
69	0x3e3484a5	0.17628725
70	0x3e1d40ec	0.15356797
71	0x3e94a126	0.29029197
72	0x3e48261d	0.19545789
73	0x3d9c93b3	0.07645359
74	0x3cc9a44a	0.024614472
75	0x3e608bbb	0.21928303
76	0x3d8ad550	0.067789674
77	0x3df4892c	0.11940226
78	0xbe7cd426	-0.24690303
79	0x3defe9f1	0.11714543
80	0xbd8ddfff	-0.069274895
81	0x3afb4742	0.0019171017
82	0x3cc2fc4c	0.023801945
83	0x3ba9b87d	0.0051794634
84	0x3df2ea78	0.118611276
85	0x3e3d9a9d	0.18516012
86	0xbe18c9fa	-0.14920798
87	0x3ddade30	0.1068691
88	0x3d8f136d	0.06986127
89	0x3d181647	0.03713062
90	0xbdf07399	-0.117407985
91	0x3e3e9b19	0.18613853
92	0x3da7f634	0.082012564
93	0xbd0805ad	-0.033208538
94	0x3e43a04e	0.1910412
95	0xbd8e0f33	-0.06936493
96	0x3e6261bc	0.22107595
97	0x3e452799	0.19253387
98	0x3ea5cf86	0.3238489
99	0x3e14d4ca	0.14534298
100	0xbdc9f031	-0.09860266
101	0xbea5788f	-0.3231854
102	0x3d7803b2	0.0605504
103	0xbd326df6	-0.0435619
104	0xbe4fceaa	-0.2029368
105	0x3e039600	0.12850189
106	0xbd0fc464	-0.035099402
107	0x3e92cc32	0.28671414
108	0x3e186850	0.14883542
109	0xbdf43ddc	-0.11925861
110	0xbd818190	-0.0632354
111	0x3e24aad6	0.16080794
112	0xbb7a4677	-0.0038188973
113	0x3e6bf578	0.23042858
114	0xbd903a0e	-0.07042323
115	0xbcdcd019	-0.026954697
116	0xbdc740f4	-0.09729186
117	0xbd6a4b58	-0.05720076
118	0x3e178ef9	0.14800633
119	0x3da7f4f5	0.08201019
120	0xbe0b07cd	-0.13577195
121	0x3ed6534d	0.41860428
122	0xbdeddfd2	-0.11614956
123	0x3d72a507	0.059239414
124	0xbdcd7fc8	-0.10034138
125	0xbd28a2fd	-0.041171063
126	0x3e0b2773	0.13589267
127	0x3e5c7382	0.21528438
128	0xbe1e1c8e	-0.1544058
129	0xbdc9dcd8	-0.09856576
130	0xbd689c19	-0.05678949
131	0xbc03a766	-0.008035516
132	0xbe2a7887	-0.1664754
133	0xbcd60608	-0.026125923
134	0xbcf83c99	-0.030302333
135	0xbd744aec	-0.059641764
136	0xbd66c5a1	-0.056340817
137	0xbd42d0b0	-0.0475623
138	0x3d0cee76	0.0344071
139	0xbd8f912f	-0.070101134
140	0xbe084d91	-0.13310839
141	0xbd5a4e90	-0.05329758
142	0xbeb19a56	-0.3468806
143	0xbda9400b	-0.08264168
144	0xbd21e403	-0.03952409
145	0xbe21a78c	-0.1578657
146	0xbc65595a	-0.013998354
147	0xbc905a21	-0.017621102
148	0xbe3c4667	-0.18386231
149	0xbd867e18	-0.06567019
150	0xbde7393f	-0.11290216
151	0xbd59e52f	-0.053197082
152	0x3c414cd9	0.011798107
153	0xbc72dc0c	-0.014822971
154	0xbd0bdb75	-0.034144837
155	0xbd51c4ca	-0.051213063
156	0xbcb6e814	-0.02232746
157	0xbcd942c2	-0.02652109
158	0xbd96c3e0	-0.07361579
159	0xbda19e0a	-0.07891472
160	0xbcfee0c5	-0.031113038
161	0xbd012ca0	-0.0315367
162	0xbc9944f7	-0.018709643
163	0xbd39425f	-0.045229312
164	0xbce763d6	-0.028245848
165	0xbc6d4165	-0.014480923
166	0xbce6f79e	-0.028194245
167	0x3ca413f7	0.020029051
168	0xbd367c20	-0.04455197
169	0xbd1d2806	-0.038368247
170	0xbd415abc	-0.04720567
171	0xbe05e6b7	-0.13076292
172	0xbe00b63f	-0.12569521
173	0xbd03c332	-0.032168575
174	0xbce1bfb2	-0.027557228
175	0xbc9917bf	-0.01868808
176	0xbdefd16e	-0.117098674
177	0xbcfb7a60	-0.030698001
178	0x3e35a0a3	0.1773706
179	0xbdf62b93	-0.1202003
180	0xbd9a3a90	-0.07530701
181	0xbd5cc21b	-0.05389605
182	0xbc91ba24	-0.017788954
183	0xbce2a549	-0.027666705
184	0x3d13a8cc	0.03604965
185	0xbd0495a3	-0.032369267
186	0x3d08601b	0.03329478
187	0xbcbbaa57	-0.022908373
188	0xbcb8c739	-0.022555934
189	0xbc56c6ac	-0.0131088905
190	0xbd08dc20	-0.033413053
191	0xbc9f2d6d	-0.01943084
192	0xbda359f0	-0.079761386
193	0x3d23b39c	0.03996621
194	0x3c575a66	0.013144111
195	0xbdb15789	-0.08659274
196	0xbdacf67e	-0.08445452
197	0x3da65e3e	0.08123444
198	0xbd67244c	-0.0564311
199	0xbd94a325	-0.0725768
200	0xbcaa2fc2	-0.020774726
201	0xbd290f40	-0.04127431
202	0x3d3d166a	0.046163954
203	0xbd460ac2	-0.048350103
204	0x3c774937	0.015093139
205	0xbd1398ef	-0.03603452
206	0xbe0756f2	-0.13216761
207	0xbc8910c9	-0.016731637
208	0xbc9f4060	-0.019439876
209	0xbecffdbf	-0.4062328
210	0xbd7c6364	-0.061618224
211	0xbcf29462	-0.02961177
212	0xbdb54e9f	-0.088528864
213	0xbe152e0f	-0.14568351
214	0xbd7132de	-0.0588864
215	0xbca2478e	-0.01980951
216	0xbc5aa7a2	-0.013345631
217	0xbc2eb5ff	-0.010663508
218	0xbcb3a9a5	-0.021931479
219	0xbd1d6f8b	-0.038436454
220	0xbd8d19d3	-0.06889691
221	0xbd13fca8	-0.036129624
222	0xbcaf3da3	-0.021391695
223	0xbcc5549e	-0.0240882
224	0xbde5ba3a	-0.112171605
225	0xbc8c7733	-0.017146682
226	0xbd80b2f3	-0.06284132
227	0xbc9f204d	-0.019424582
228	0xbcbd917c	-0.023140661
229	0xbe0d2e88	-0.13787282
230	0x3dd669db	0.10469409
231	0x3d0d9d03	0.034573566
232	0xbdd6f744	-0.10496381
233	0x3c5f75cf	0.013638928
234	0xbe66a669	-0.22524418
235	0xbd834d24	-0.06411198
236	0xbc91c449	-0.017793791
237	0xbc89194b	-0.016735693
238	0x3cca196e	0.024670329
239	0x3d0ce24e	0.03439551
240	0xbcb086ef	-0.021548716
241	0xbc7d5f2a	-0.015464583
242	0xbd646b95	-0.05576666
243	0xbe0f5192	-0.1399596
244	0x3c758bc2	0.014986934
245	0xbcf6e519	-0.03013854
246	0xbcb5a4de	-0.022173341
247	0xbc83e68f	-0.01610115
248	0xbca45428	-0.02005966
249	0xbd5c64c8	-0.05380705
250	0xbd112812	-0.035438605
251	0x3d1342e1	0.035952453
252	0x3c82efff	0.01598358
253	0xbd362cd5	-0.04447635
254	0x3d352888	0.044228107
255	0xbdcd284d	-0.100174524

hidden.weight_hh_l0 f4 [384, 128]
0	0xbe0e943c	-0.13923734
1	0xbe3e254a	-0.18568912
2	0xbe3438a3	-0.1759973
3	0xbe02c97f	-0.12772177
4	0xbdbf3c87	-0.093377165
5	0x3d2a42cb	0.041567605
6	0x3d12e5bc	0.035863623
7	0x3dba72f2	0.09103955
8	0xbe4713b6	-0.19441113
9	0x3da1fb20	0.079092264
10	0xbe16ed05	-0.14738853
11	0xb953935a	-0.00020177421
12	0xbd435d66	-0.047696494
13	0x3cd162b4	0.02555976
14	0xbe6ad815	-0.22933991
15	0x3cf359c2	0.029705886
16	0x3e813343	0.25234422
17	0x3e92164b	0.28532633
18	0xbddf3eec	-0.10900673
19	0xbd8237eb	-0.06358322
20	0xbe137399	-0.14399566
21	0xbd92d149	-0.07168824
22	0xbdf4a043	-0.1194463
23	0xba870431	-0.0010300932
24	0x3ad542a1	0.0016270467
25	0xbe5c27e7	-0.21499597
26	0xbc8604f7	-0.01635979
27	0xbd62f45e	-0.055408828
28	0x3d2e54df	0.042561408
29	0x3b1e662b	0.0024169784
30	0x3a1b4482	0.0005922989
31	0x3ce0400f	0.027374296
32	0xbdf10db5	-0.117701925
33	0xbdae37d9	-0.08506746
34	0x3d5170a8	0.051132828
35	0xbe13f02f	-0.14447092
36	0xbea12182	-0.31470877
37	0x3d7670a7	0.060166027
38	0xbc7aaefe	-0.01530051
39	0xbd56bd05	-0.052426357
40	0xbe01effb	-0.12689202
41	0xbd887348	-0.06662613
42	0x3c04f286	0.008114463
43	0xbebe3177	-0.37147114
44	0x3e2f2a51	0.17105986
45	0xbdc88fb4	-0.09793034
46	0xbd248d0c	-0.040173575
47	0x3d08d888	0.033409625
48	0xbdd0abfc	-0.101890534
49	0xbd814001	-0.06311036
50	0x3db57648	0.08860451
51	0x3e917d96	0.28416127
52	0x3df41187	0.119174056
53	0x3e57abd3	0.2106164
54	0xbe3d503b	-0.18487637
55	0xbe42722d	-0.18988867
56	0x3dcfe0fd	0.10150335
57	0xbb70f80b	-0.003676894
58	0xbca2129e	-0.019784268
59	0xbd92da33	-0.071705244
60	0x3e07e661	0.13271476
61	0xbd45b587	-0.04826882
62	0xbd44d527	-0.04805484
63	0x3dac9370	0.08426559
64	0xbd509a98	-0.050928682
65	0x3dade66a	0.084912136
66	0xbd0b2638	-0.033971995
67	0xbca38ca7	-0.01996453
68	0xbd562bfe	-0.052288048
69	0x3d8ee9ff	0.06978225
70	0xbd9cd521	-0.076578386
71	0xbcc9f4c9	-0.024652855
72	0xbdeb3dc8	-0.11486393
73	0x3d4b5fd2	0.04965193
74	0xbd37be8a	-0.044859447
75	0x3cecd983	0.028912311
76	0x3e3ff7e8	0.18746912
77	0xbd91af56	-0.07113521
78	0xbe240c6b	-0.16020362
79	0x3d618a25	0.055063386
80	0x3d64244d	0.05569868
81	0x3e7f819c	0.24951786
82	0xbe0b26c3	-0.13589005
83	0x3e11d96b	0.14243095
84	0xbe1283c9	-0.14308085
85	0xbda9a094	-0.08282581
86	0x3e263276	0.16230187
87	0x3c167152	0.009182291
88	0x3dd9a75b	0.10627624
89	0x3e53d869	0.20688023
90	0x3db8759c	0.09006807
91	0xbe440f14	-0.19146377
92	0xbd9294ec	-0.07157311
93	0x3e7c7669	0.24654545
94	0x3d12f50f	0.035878237
95	0x3d1de482	0.038548
96	0xbd6ac446	-0.057316087
97	0xbdfc3683	-0.12315085
98	0xbcacd2e0	-0.021096647
99	0xbe17368c	-0.14766902
100	0xbdd15e4e	-0.10223065
101	0xbe062913	-0.13101606
102	0x3daf9cb0	0.08574808
103	0x3d677025	0.056503434
104	0x3e8436b0	0.25822973
105	0xbdc1886e	-0.0944985
106	0x3c5e4662	0.013566585
107	0x3c657816	0.0140056815
108	0x3e6db882	0.23214915
109	0x3e03b46e	0.12861797
110	0x3d83704e	0.06417905
111	0x3d0dbf9a	0.034606554
112	0x3e0f2ffb	0.13983147
113	0x3cb1e5ca	0.021716017
114	0xbce167d4	-0.02751533
115	0x3da3bed8	0.07995385
116	0xbd11b3eb	-0.035571974
117	0xbd674793	-0.056464743
118	0xbe9009fb	-0.28132614
119	0x3b35ea11	0.0027757923
120	0xbe46672a	-0.19375291
121	0x3c66a779	0.0140780145
122	0x3cfde787	0.03099419
123	0xb920c9d7	-0.0001533398
124	0x3cf0bcfb	0.029386988
125	0x3d0a66b4	0.03378935
126	0x3dbf4f12	0.09341253
127	0x3e16f2b3	0.1474102
128	0xbdae46bd	-0.08509586
129	0xbbca1050	-0.0061664954
130	0x3c8c61e7	0.017136527
131	0xbdc564db	-0.09638377
132	0xbcb19fc5	-0.02168263
133	0xbd15d8c4	-0.036583677
134	0x3e41f412	0.18940762
135	0x3ad6f5c4	0.0016400148
136	0xbe12b5d1	-0.1432717
137	0xbd43ebe7	-0.047832396
138	0xbda16b5f	-0.078818075
139	0xbdb541e7	-0.088504605
140	0xbdd61f7d	-0.10455225
141	0x3d815842	0.06315662
142	0xbd1f67ad	-0.038917232
143	0xbd5dd650	-0.054159462
144	0xbc41c6ba	-0.011827165
145	0x3da400a5	0.080079354
146	0xbc24ae51	-0.010051326
147	0xbe1a1795	-0.15048058
148	0x3d1fd48e	0.039021067
149	0xbdeacead	-0.114652015
150	0xbd59a235	-0.05313321
151	0xbcfd84a2	-0.030947033
152	0x3de20c03	0.11037447
153	0x3d1d585b	0.03841434
154	0xbdce5ed8	-0.10076684
155	0xbe157654	-0.1459592
156	0xbbb8fb1a	-0.005645168
157	0xbd845970	-0.06462371
158	0xbd17249b	-0.036900144
159	0xbe225c2b	-0.15855472
160	0xbd330aa0	-0.043711305
161	0x3e1f382f	0.15548776
162	0xbcb2ab68	-0.021810248
163	0xbd3eaecd	-0.04655342
164	0xbe18ad04	-0.1490975
165	0x3d641f37	0.05569383
166	0xbdb7ccd3	-0.08974614
167	0xbda8a1a9	-0.08233959
168	0xbc546b0d	-0.012964976
169	0xbc386de9	-0.011256673
170	0xbe0ca14e	-0.13733408
171	0x3d59f558	0.053212494
172	0x3d6996f2	0.05702872
173	0xbc6e8bb8	-0.014559679
174	0xbe34163a	-0.17586604
175	0x3e1951f9	0.14972676
176	0xbdf1f0ac	-0.11813483
177	0xbd69183f	-0.05690789
178	0x3e86865b	0.2627438
179	0x3e16187b	0.14657776
180	0x3d9f8b05	0.07790188
181	0xbd950962	-0.0727718
182	0xbd23ed3f	-0.040021177
183	0xbe86d45d	-0.26333895
184	0xbd58ab7c	-0.052897915
185	0x3d9d2618	0.076732814
186	0xbc1de19e	-0.009636311
187	0xbd245f33	-0.04012985
188	0xbe0feb85	-0.14054687
189	0xbe04539c	-0.1292252
190	0x3dcb0a5f	0.099140875
191	0x3c10dc78	0.008841626
192	0x3e61b4e4	0.2204166
193	0x3d36b5c9	0.044606958
194	0xbe1d6ae1	-0.15372802
195	0x3e80e74e	0.2517647
196	0xbd936162	-0.07196309
197	0xbd91d480	-0.07120609
198	0xbe57e3c9	-0.21082987
199	0xbe71182f	-0.23544382
200	0x3db9bc64	0.09069136
201	0x3afd4c30	0.0019325074
202	0xbdd30246	-0.10303168
203	0x3da195ca	0.07889898
204	0x3d93811e	0.072023615
205	0x3df1835c	0.11792633
206	0x3a4b71b0	0.0007760776
207	0xbe6d45eb	-0.23171203
208	0xbcaef90c	-0.02135899
209	0x3d2874db	0.041127067
210	0xbdd9520c	-0.10611352
211	0x3e53fd6e	0.20702145
212	0x3d9cc6d2	0.076551095
213	0x3d05fa3f	0.032709356
214	0xbdf47bb3	-0.11937656
215	0xbd61443f	-0.054996725
216	0x3db8916d	0.09012113
217	0x3e84a237	0.2590501
218	0x3dba6fbc	0.09103343
219	0x3c9a20b1	0.018814417
220	0xbce2a4cd	-0.027666474
221	0x3e138381	0.14405634
222	0x3e3bd382	0.18342403
223	0xbd656ab3	-0.05600996
224	0xbd27228e	-0.04080444
225	0xbd9c1518	-0.07621211
226	0x3d753d29	0.05987278
227	0xbdd4c01f	-0.10388207
228	0xbccf9bbb	-0.025342813
229	0xbc91a6c1	-0.01777971
230	0xbe248c4d	-0.16069146
231	0x3b2313e3	0.002488368
232	0x3d9b7c7b	0.07592102
233	0xbd08a739	-0.0333626
234	0xbd8705fb	-0.065929376
235	0x3d832dcb	0.06405219
236	0x3e0aea9d	0.1356606
237	0x3df11683	0.11771872
238	0x3dfddc60	0.12395549
239	0x3d8d8ca7	0.06911593
240	0x3e81f12b	0.2537931
241	0xbe108865	-0.1411453
242	0x3c082098	0.008308552
243	0x3e0f57ac	0.13998288
244	0xbd943df1	-0.07238377
245	0x3d1ff251	0.03904945
246	0xbe2e0884	-0.16995436
247	0xbdd6bc5e	-0.10485147
248	0xbd8c64e9	-0.068551846
249	0x3d48290a	0.048867263
250	0x3c336f7f	0.010951876
251	0xbd339334	-0.043841556
252	0xbda891cd	-0.08230934
253	0x3d8a4820	0.06752038
254	0x3b7eed49	0.0038898757
255	0x3dab3dc9	0.08361394

hidden.bias_ih_l0 f4 [384]
0	0x3d8013ae	0.062537536
1	0x3d6643d0	0.056217015
2	0x3e179980	0.1480465
3	0x3e005e85	0.12536056
4	0xbdb2523f	-0.087070934
5	0xbd88915c	-0.0666835
6	0xbd062079	-0.032745812
7	0xbceb4d32	-0.028723333
8	0x3d48ff61	0.049071673
9	0xbd13fb01	-0.036128048
10	0x3e23d693	0.15999822
11	0x3e000356	0.12501273
12	0xbd954aae	-0.07289635
13	0x3e530e71	0.20610978
14	0x3d5e08a2	0.05420745
15	0x3eaf16ca	0.34197074
16	0xbc8c1cee	-0.017103638
17	0x3d5b9d02	0.05361653
18	0x3d1d94b6	0.0384719
19	0x3eb0bb82	0.34518057
20	0xbe28937b	-0.1646251
21	0x3e29db7d	0.16587634
22	0x3e097908	0.13425076
23	0x3e1ff74d	0.15621682
24	0x3d91071f	0.07081436
25	0x3d58d091	0.05293328
26	0x3db99e55	0.090634026
27	0x3de5a59b	0.11213227
28	0xbd056ff2	-0.032577462
29	0x3cae6dc0	0.021292567
30	0x3cb74bc2	0.022374991
31	0xbd816a63	-0.0631912
32	0x391ed128	0.00015145971
33	0xbd5f6928	-0.054543644
34	0x3e16e8a4	0.14737183
35	0xbda8d5ec	-0.08243927
36	0x3d80ec5a	0.062950805
37	0x3e4f62bd	0.2025251
38	0x3d10d622	0.035360463
39	0x3dee3b0b	0.11632355
40	0x3db1bc74	0.08678523
41	0x3e2c634e	0.16834757
42	0x3caf95df	0.021433769
43	0x3d335095	0.04377802
44	0xbd8a0f02	-0.06741144
45	0x3c00eb6f	0.007868632
46	0x3d1c9a09	0.038232837
47	0xbeab085f	-0.33404824
48	0x3da2ef12	0.07955755
49	0x3dd5e7da	0.10444613
50	0x3da5ca8d	0.08095274
51	0x3d9c0788	0.07618624
52	0x3d49cf82	0.04927016
53	0x3ded2d71	0.11580933
54	0x3dd9bda0	0.10631871
55	0xbcd6e6c1	-0.026233079
56	0x3c5dcb40	0.013537228
57	0x3e14a79f	0.14517067
58	0x3cfd42dd	0.030915672
59	0x3df65542	0.120279804
60	0xbe8ab792	-0.27093178
61	0x3de39bed	0.11113725
62	0x3e0719c0	0.13193417
63	0x3c91705b	0.01775377
64	0xbcdf2e1e	-0.02724367
65	0x3dc720db	0.097230636
66	0x3d85e99a	0.065386966
67	0x3d9050d3	0.07046666
68	0xbcf404b3	-0.029787397
69	0x3ea545b7	0.3227975
70	0x3e1f1959	0.15537013
71	0xbe2ebab5	-0.1706341
72	0xbc660961	-0.014040322
73	0x3d0903d1	0.033450905
74	0x3eaab382	0.3334008
75	0xbdb27fbc	-0.0871577
76	0x3e4513ef	0.19245885
77	0x3e1b49f0	0.15164924
78	0x3d89567e	0.0670595
79	0xbda177be	-0.07884167
80	0x3d6fc78b	0.05853991
81	0x3dbb23c0	0.09137678
82	0x3cd3841b	0.025819829
83	0xbd11a6d5	-0.035559494
84	0x3da067d6	0.07832305
85	0xbdfe7586	-0.124247596
86	0x3c699508	0.014256723
87	0x3aa83464	0.0012832996
88	0xbd88cb73	-0.0667943
89	0xbcf4d0e5	-0.029884765
90	0x3da70d92	0.08156885
91	0xbcdfadd1	-0.027304562
92	0x3eedff5a	0.4648388
93	0x3e1b025d	0.1513762
94	0xbe2ef6d8	-0.17086351
95	0xbc54187b	-0.01294529
96	0xbdff1fe3	-0.12457254
97	0x3d6ef82e	0.05834215
98	0xbe1159a6	-0.14194354
99	0x3e1d3266	0.15351257
100	0x3e41f645	0.189416
101	0x3e456968	0.1927849
102	0x3dbfccf1	0.09365261
103	0x3e7c9ab6	0.24668393
104	0x3b3f8aee	0.0029227096
105	0xbd42643b	-0.04745887
106	0x3ded1346	0.11575942
107	0x3e0b44ab	0.13600414
108	0x3cd658fb	0.026165476
109	0x3def5197	0.11685484
110	0xbd1c6aa5	-0.03818764
111	0x3e149114	0.14508468
112	0x3e2286e6	0.15871772
113	0xbc90954d	-0.017649317
114	0x3d65d1c7	0.056108262
115	0x3de8374e	0.113386735
116	0x3d7ad1e7	0.061235335
117	0x3ddbadc9	0.10726506
118	0x3dba8608	0.09107596
119	0x3d997394	0.07492748
120	0x3e2f472d	0.17116995
121	0x3c681618	0.014165424
122	0x3dde675b	0.10859557
123	0x3d42cf9e	0.04756128
124	0x3ddabec8	0.1068092
125	0x3da5cedf	0.08096098
126	0x3d0f5deb	0.035001677
127	0x3db82fe4	0.089935094
128	0xbe95c43b	-0.29251274
129	0xbde3f3b0	-0.11130464
130	0x3dd7b053	0.10531678
131	0x3d8bf1d3	0.06833234
132	0x3e5a975d	0.21346803
133	0x3eadc251	0.33937314
134	0x3d688917	0.056771364
135	0xbe2c3e6b	-0.16820686
136	0x3d05b214	0.03264053
137	0x3de96cca	0.11397703
138	0xbd6d7384	-0.057971492
139	0xbd97a0dc	-0.07403728
140	0x3d0bb4e7	0.03410807
141	0x3e116f06	0.14202508
142	0xbe62ed9b	-0.22160952
143	0xbe041078	-0.12896907
144	0xbda21ec2	-0.07916023
145	0xbe691da1	-0.22765209
146	0x3dfa0923	0.12208774
147	0xbe02a423	-0.12757926
148	0x3d226c0b	0.03965382
149	0xbe5c0a46	-0.21488294
150	0xbe8945ef	-0.26811168
151	0x3e58b6d7	0.21163498
152	0xbda3de3a	-0.08001371
153	0x3e95365b	0.29143032
154	0xbd198ba9	-0.037486706
155	0xbda37aff	-0.07982444
156	0x3e19d559	0.15022792
157	0x3d32da8a	0.043665446
158	0x3d2ce217	0.042207804
159	0x3d058154	0.03259404
160	0x3dce2405	0.10065464
161	0x3d04d905	0.03243353
162	0x3e0a2528	0.13490736
163	0x3e680437	0.22657858
164	0x3e59a362	0.21253732
165	0x3e801de4	0.25022805
166	0x3e6dd86c	0.2322709
167	0xbe1214e5	-0.14265783
168	0xbe1a7588	-0.15083897
169	0x3d1adb67	0.037806895
170	0x3d63b4af	0.055592235
171	0xbd947746	-0.07249312
172	0xbd160709	-0.036627803
173	0x3e018ea9	0.12652077
174	0x3e723cb8	0.23655975
175	0x3d811e26	0.063045785
176	0xbe8690c3	-0.2628232
177	0x3e0210d2	0.12701729
178	0x3c201bbc	0.009772237
179	0xbd27ecbd	-0.040997256
180	0xbd9ea58c	-0.07746419
181	0x3dede58b	0.116160475
182	0xbdacca1d	-0.084369875
183	0x3df907f2	0.121597186
184	0xbe4bea70	-0.1991365
185	0x3d9f9c1c	0.077934474
186	0xbe9433e6	-0.28945845
187	0x3e789d19	0.24278678
188	0x3db838cb	0.089952074
189	0xbd2db73c	-0.042411074
190	0xbb85f2aa	-0.0040877657
191	0x3cd43abb	0.025906911
192	0x3dbe2c64	0.092858106
193	0xbe7fa88c	-0.2496664
194	0xbe572fa1	-0.21014263
195	0x3de7fa2f	0.113270156
196	0x3d46b76d	0.048514772
197	0xbe4e0224	-0.20118004
198	0x3d3fc0a2	0.04681457
199	0xbb3c44a9	-0.0028727448
200	0x3e0bbb1a	0.13645592
201	0x3e0eab07	0.13932429
202	0xbc939565	-0.018015573
203	0x3e1c63a1	0.1527238
204	0xbe4cc242	-0.19995978
205	0x3df6d1d3	0.120517395
206	0xbdf8eba1	-0.12154318
207	0x3d17126e	0.03688281
208	0x3e6d70d7	0.23187576
209	0xbe1ea19f	-0.15491341
210	0xbdb910a4	-0.09036377
211	0x3ddb1e15	0.10699097
212	0x3db640e0	0.08899093
213	0x3c5101a3	0.012756738
214	0xbded271f	-0.115797274
215	0x3d3ee58d	0.046605635
216	0x3d21e104	0.039521232
217	0x3d8b27e5	0.06794719
218	0x3da10c5e	0.07863687
219	0xbd95a3c4	-0.073066264
220	0xbe5faccc	-0.2184326
221	0xbda20649	-0.07911355
222	0x3d24d2e9	0.040240202
223	0xbbdefbac	-0.006804904
224	0x3d51a5b6	0.051183425
225	0x3e2d37d7	0.16915832
226	0xbca76d70	-0.020437926
227	0xbc3245c5	-0.010880892
228	0x3eb1836d	0.34670582
229	0xbe723eef	-0.2365682
230	0x3d970722	0.07374407
231	0xbeec8d77	-0.4620168
232	0xbd54710d	-0.051865626
233	0x3d083a83	0.033258926
234	0xbe57770f	-0.21041511
235	0xbe492f35	-0.19646914
236	0x3d87cb80	0.066306114
237	0x3de79449	0.1130758
238	0xbd07ac20	-0.033123136
239	0xbe3dc170	-0.18530822
240	0xbd54b545	-0.051930685
241	0x3ded95fd	0.116008736
242	0x3d4abff1	0.049499456
243	0xbdbe0c18	-0.092796504
244	0x3d1c53cf	0.038165864
245	0x3e09ab72	0.13444307
246	0x3e9eaa80	0.30989456
247	0x3c5d5be0	0.013510674
248	0x3e2d5e5d	0.16930528
249	0xbe319ea3	-0.17345671
250	0x3da2f429	0.07956726
251	0xbe145f3a	-0.14489451
252	0x3cf8c794	0.030368604
253	0xbdf6290a	-0.12019546
254	0x3cd26362	0.025682155
255	0xbde7b459	-0.113136955

hidden.bias_hh_l0 f4 [384]
0	0x3d9efdc2	0.07763244
1	0xbc88b101	-0.016685965
2	0x3e575dd3	0.21031885
3	0x3dcf34e0	0.10117507
4	0xbc12930f	-0.008946194
5	0x3d76bcdc	0.060238704
6	0x3ab3b3f3	0.0013710245
7	0xbd2b61dc	-0.041841373
8	0x3e1cd671	0.15316178
9	0xbe06a97f	-0.13150595
10	0x3e0463e1	0.12928726
11	0x3d6477ef	0.05577844
12	0xbd56e37b	-0.052463036
13	0x3d851fa1	0.06500173
14	0x3e0a4959	0.13504542
15	0x3e789e7c	0.24279207
16	0x3de46d97	0.11153715
17	0xbcc4cba7	-0.02402289
18	0x3d90f1b7	0.070773534
19	0x3e61a9f1	0.22037484
20	0xbdd38bc0	-0.103293896
21	0x3df82041	0.12115527
22	0x3d874705	0.06605343
23	0x3dbe19ad	0.09282241
24	0x3da082d3	0.07837453
25	0x3e0d551b	0.13801996
26	0x3e07a502	0.13246539
27	0x3d29c5b2	0.041448303
28	0x3bfa3b98	0.0076364987
29	0xbc4fc7bf	-0.0126819005
30	0x3db21eae	0.08697258
31	0x3c820285	0.015870342
32	0x3d98f696	0.074689075
33	0xbdb3645d	-0.08759377
34	0x3c905d08	0.017622486
35	0xbdc84402	-0.097785965
36	0x3ddd0ef9	0.107938714
37	0x3e578178	0.21045482
38	0x3d91fe45	0.07128576
39	0x3dc2ce56	0.09512012
40	0x3d271d60	0.0407995
41	0x3df4b560	0.11948657
42	0x3d81ff5c	0.06347534
43	0x3d8d9a1f	0.06914162
44	0xbd1ba140	-0.037995577
45	0x3dae37a8	0.08506709
46	0xbc6c770e	-0.014432682
47	0xbe82b646	-0.2552969
48	0x3da24a72	0.079243556
49	0x3e3cd135	0.18439181
50	0x3e2be60d	0.16786976
51	0x3d82a4ef	0.06379115
52	0x3d1ca72b	0.03824536
53	0x3e122073	0.14270191
54	0x3e325b4d	0.17417641
55	0x3d02ce4b	0.031935018
56	0xbbe63c6a	-0.007026245
57	0x3e39ea8d	0.1815588
58	0x3dea0b27	0.114279084
59	0x3e151b9d	0.14561315
60	0xbe218563	-0.15773539
61	0x3d873a21	0.06602884
62	0x3ca8ef44	0.020621903
63	0x3d88a9ac	0.06672987
64	0x3ddb2081	0.10699559
65	0x3db99ff7	0.09063714
66	0x3e4dad37	0.20085607
67	0xbc72f765	-0.014829491
68	0x3d940ee8	0.07229406
69	0x3e8dc20d	0.27687111
70	0x3dd1f6a3	0.1025212
71	0xbe623a48	-0.22092545
72	0xbe07507f	-0.132143
73	0x3d055495	0.032551367
74	0x3ecab362	0.39589983
75	0xbbe1cf66	-0.006891179
76	0x3dbc44cd	0.0919281
77	0x3e03d6be	0.12874886
78	0x3e582026	0.21106014
79	0xbcf8af9d	-0.030357176
80	0x3df6618a	0.12030323
81	0x3daa8183	0.08325484
82	0x3d63003d	0.05542015
83	0x3d3ef351	0.046618763
84	0x3e28f8f5	0.1650122
85	0xbdb3a8a6	-0.087724015
86	0x3d618fb4	0.055068687
87	0x3de794a2	0.11307646
88	0x3c847d17	0.016172929
89	0x3d6e8e51	0.058241192
90	0x3db7cd2f	0.089746825
91	0xbd0308ec	-0.03199093
92	0x3ec244b2	0.37943035
93	0x3d02eca2	0.031963952
94	0xbe48d62d	-0.19612952
95	0x3caab210	0.02083686
96	0xbc37954a	-0.011205027
97	0x3da0fc8d	0.0786067
98	0xbe097087	-0.13421832
99	0x3d8ba469	0.06818468
100	0x3dbe0a0e	0.092792615
101	0x3e3c3e00	0.18383026
102	0x3dd31867	0.10307389
103	0x3e7d9ff4	0.24768049
104	0x3d6ffb38	0.05858919
105	0x3d7383e1	0.05945194
106	0x3c9adfcc	0.018905543
107	0x3e63d8f6	0.22250733
108	0x3d22b4fc	0.03972338
109	0x3e353227	0.17694913
110	0xbd23a0c4	-0.03994824
111	0x3e179359	0.14802302
112	0x3d39c1cc	0.045350835
113	0xbd8787ab	-0.066176735
114	0x3d60486f	0.054756578
115	0x3db2ed9f	0.08736729
116	0x3d90fc49	0.070793696
117	0x3d19130a	0.037371673
118	0x3e0be5dd	0.13661905
119	0x3e245711	0.16048838
120	0x3e05ef5b	0.13079588
121	0xbdcc995b	-0.09990188
122	0x3c48fb35	0.012266924
123	0x3d3ffd73	0.046872567
124	0x3dbb75a2	0.09153296
125	0xbc8ed613	-0.017436063
126	0x3df22188	0.11822802
127	0x3d90222e	0.07037769
128	0xbe68357c	-0.22676653
129	0xbdaa7579	-0.083231874
130	0x3e636927	0.22208081
131	0x3db2921e	0.08719276
132	0x3e4365bf	0.19081782
133	0x3e7a11f4	0.24420911
134	0x3d5280f6	0.051392518
135	0xbdf3a718	-0.11897105
136	0x3bb81445	0.0056176507
137	0x3e1adfc5	0.15124424
138	0xbd3f7240	-0.046739817
139	0xbdd08cb0	-0.10183084
140	0xbc0709b3	-0.008242059
141	0x3e52cccd	0.20585938
142	0xbeb2abd8	-0.3489673
143	0xbd2addb4	-0.04171534
144	0xbcf1abc6	-0.029500853
145	0xbe4c2d42	-0.1993914
146	0x3d7eb9d9	0.062188957
147	0xbdcf3c5f	-0.10118937
148	0xbda62040	-0.0811162
149	0xbe68f68b	-0.22750299
150	0xbe66537c	-0.22492784
151	0x3e299995	0.16562493
152	0x3d8ba957	0.068194084
153	0x3e8f67f5	0.28009
154	0xbcd53b41	-0.026029231
155	0xbd3576a4	-0.044302598
156	0x3ddf60c9	0.10907132
157	0x3dd93471	0.106057055
158	0x3dc46b7f	0.09590816
159	0xbc9667af	-0.018359987
160	0x3c12b379	0.008953922
161	0x3dda299d	0.10652468
162	0x3d227445	0.039661665
163	0x3e56b1dd	0.20966287
164	0x3e68b633	0.22725753
165	0x3e4fb55f	0.20284031
166	0x3e65e27c	0.22449678
167	0xbe1581f3	-0.14600353
168	0xbe123e63	-0.14281611
169	0x3d161a2d	0.036646057
170	0x3d7b171a	0.06130133
171	0xbd666387	-0.05624726
172	0xbcb93771	-0.022609444
173	0x3dd2581e	0.10270713
174	0x3e8ec8bd	0.27887526
175	0xbbf79037	-0.0075550335
176	0xbe992063	-0.29907522
177	0x3e091764	0.13387829
178	0xbd82d74b	-0.0638872
179	0xbd1e3156	-0.03862127
180	0xbd8807d7	-0.0664212
181	0x3bc55af4	0.0060228053
182	0xbdeb07b0	-0.11476076
183	0x3d7ac64c	0.061224267
184	0xbe355051	-0.1770642
185	0xbc0b7c56	-0.008513531
186	0xbea0a6bc	-0.31377208
187	0x3e23877b	0.1596965
188	0xbd13cde6	-0.036085032
189	0xbdf89924	-0.12138584
190	0xbc21551b	-0.009846951
191	0x3d66968d	0.05629592
192	0x3dc3de8f	0.09563934
193	0xbe6bc34f	-0.23023723
194	0xbe5cedea	-0.21575132
195	0x3bf1338b	0.0073608807
196	0xbd3b166b	-0.045675676
197	0xbe6878aa	-0.2270228
198	0xbd9ef519	-0.077615924
199	0xbdbbf6e8	-0.09177953
200	0x3dd694a2	0.10477568
201	0x3e3040c8	0.17212212
202	0xbe0d3650	-0.1379025
203	0x3e14760c	0.14498156
204	0xbe3cffea	-0.18456998
205	0x3e84f27f	0.2596626
206	0xbe46e537	-0.19423376
207	0xb887679e	-6.456602e-05
208	0x3e285358	0.16438043
209	0xbe54ef4b	-0.20794408
210	0x3d2896fa	0.041159607
211	0x3dc54e9f	0.096341364
212	0x3d83c14d	0.064333536
213	0x3dc96d6e	0.09835325
214	0xbdacfd01	-0.08446694
215	0x3ca4b270	0.020104617
216	0x3dabec2c	0.083946556
217	0x3c93844e	0.018007424
218	0x3db4fea5	0.08837632
219	0xbdcaac34	-0.098961264
220	0xbeaba044	-0.3352071
221	0xbd57d6cb	-0.052695077
222	0xbc86e679	-0.01646732
223	0x3d8db6bb	0.06919619
224	0x3dbe9a6b	0.09306797
225	0x3e7bdc63	0.2459579
226	0xbde8fb3c	-0.11376044
227	0x3d612bf0	0.054973543
228	0x3ea9b39e	0.3314485
229	0xbe8176a1	-0.2528582
230	0x3ade3e25	0.0016955776
231	0xbec86147	-0.39136717
232	0xbe007597	-0.12544857
233	0xbd0f753e	-0.03502392
234	0xbead1cb1	-0.33810952
235	0xbd82a78e	-0.06379615
236	0xbd457f87	-0.048217323
237	0x3e52d612	0.20589474
238	0xbd181f3a	-0.037139155
239	0xbe2f5da0	-0.17125559
240	0x3bc7b4dd	0.0060945586
241	0x3e132366	0.14368972
242	0x3c2b7da6	0.010466969
243	0xbd593f07	-0.053038623
244	0xbc448865	-0.01199541
245	0x3e314f68	0.17315447
246	0x3e86182b	0.26190314
247	0xbb61de03	-0.0034464605
248	0x3e6e7c5a	0.23289624
249	0xbe28b7c0	-0.16476345
250	0x3e6ae411	0.22938563
251	0xbd9f4418	-0.0777666
252	0x3bfa5d7d	0.007640539
253	0xbdff5aaa	-0.12468465
254	0xbd80a0e3	-0.06280687
255	0xbdb3e8c7	-0.08784633

hidden.weight_ih_l1 f4 [384, 128]
0	0xbdc5b63a	-0.096538976
1	0xbd26a03c	-0.040680155
2	0x3c79cba9	0.01524631
3	0xbc5bd20c	-0.013416778
4	0xbd4e31f0	-0.050340593
5	0xbd55c6ca	-0.052191533
6	0x3dbfc7d8	0.09364289
7	0xbc30071d	-0.010743883
8	0xbd8e7c26	-0.06957273
9	0xbdc7f5a3	-0.09763648
10	0x3c9f0e59	0.019416021
11	0xbd8f0945	-0.0698419
12	0x3dfecc36	0.12441294
13	0xbc9f3796	-0.019435685
14	0xbd2ce75a	-0.04221282
15	0x3d7c4719	0.06159124
16	0xbd4e468b	-0.050360244
17	0xbd94ae38	-0.07259792
18	0xbc0d5713	-0.008626717
19	0x3d16a929	0.036782417
20	0x3cbce8d0	0.023060232
21	0x3cbcc7cd	0.023044491
22	0xbdc9ff4b	-0.098631464
23	0x3be84880	0.007088721
24	0x3c1ac760	0.009446949
25	0x3e1c43ea	0.15260282
26	0xbcd9a1e4	-0.026566453
27	0x3c88aee0	0.01668495
28	0x3d82a3a9	0.06378872
29	0xbde1aa6b	-0.11018833
30	0xbdf972a3	-0.12180068
31	0xbe079788	-0.13241398
32	0xbd667a05	-0.05626871
33	0xbcd92c22	-0.026510302
34	0xbea6eac3	-0.32600984
35	0xbdd57963	-0.10423543
36	0x3c6c3a56	0.014418205
37	0xbdcaffb2	-0.09912051
38	0xbcb021e2	-0.021500532
39	0x3de6b76d	0.112654544
40	0x3de58356	0.11206691
41	0xbc44e331	-0.012017057
42	0xbd91d62c	-0.07120928
43	0xbda2a710	-0.07942021
44	0xbd79b672	-0.06096501
45	0xbe033f8b	-0.12817208
46	0x3c0c739e	0.008572487
47	0x3d05050a	0.03247551
48	0x3c71aba6	0.014750397
49	0x3d164faa	0.036697067
50	0xbe53ff79	-0.20702924
51	0x3cffe138	0.031235322
52	0x3d38e30c	0.045138404
53	0xbcb33a49	-0.021878378
54	0xbbded8fd	-0.0068007694
55	0x3c584f2a	0.013202468
56	0xbdfa9ad1	-0.1223656
57	0x3df989ad	0.12184463
58	0x3cbba79a	0.022907067
59	0xbd19dbe6	-0.037563227
60	0x3d1632e3	0.036669623
61	0x3cd3a5ce	0.025835898
62	0x3df0f2d5	0.117650665
63	0x3d535ab0	0.05160016
64	0x3d855d31	0.065119155
65	0xbc8829a3	-0.016621416
66	0xbd396e9b	-0.045271497
67	0x3e3184fd	0.17335887
68	0x3dd0b5d8	0.10190934
69	0xbd01dab4	-0.031702712
70	0x3cb6b4f7	0.022303088
71	0xbca96a7e	-0.020680662
72	0x3cf8cbd1	0.030370625
73	0xbbdbfef4	-0.0067137424
74	0x3dc9126d	0.098179676
75	0x3d9cfbea	0.07665236
76	0x3c074a01	0.00825739
77	0xbd92e2ee	-0.0717219
78	0xbd976b6c	-0.07393536
79	0xbaa3b5ee	-0.0012490132
80	0xbd266fe2	-0.040634044
81	0x3d9aa320	0.07550645
82	0x3d1313c6	0.03590753
83	0xbd38f99f	-0.045159932
84	0xbc780840	-0.015138686
85	0x3dab45cf	0.08362924
86	0xbb6319c9	-0.003465282
87	0x3ceeaeb2	0.029136036
88	0xbd174e35	-0.03693982
89	0x3d8d0277	0.06885236
90	0x3cdea2c8	0.02717723
91	0x3d3c8bc8	0.046031743
92	0x3ce16f7d	0.027518982
93	0xbd1f556c	-0.038899824
94	0x3e0b0eae	0.13579819
95	0xbd7f65b5	-0.062352855
96	0xbd84c6de	-0.064832434
97	0x3cfc7044	0.030815251
98	0xbe5b5479	-0.21418943
99	0xbc8fe84e	-0.017566826
100	0x3df0a8b2	0.11750926
101	0x3c7addde	0.015311686
102	0xbd7353cb	-0.059406083
103	0xbdd159a2	-0.10222174
104	0x3dc19242	0.094517246
105	0xbd3f708c	-0.046738192
106	0xbca96b4a	-0.020681042
107	0xbd25755d	-0.04039513
108	0x3da179b9	0.07884545
109	0xbd8c2c3d	-0.06844375
110	0x3db5a090	0.088685155
111	0xbdb88a93	-0.09010806
112	0x3dc7791b	0.09739896
113	0xbd3a5fe9	-0.045501623
114	0xbd23d15a	-0.039994575
115	0xbd37694b	-0.04477815
116	0x3d183721	0.03716195
117	0x3d080106	0.0332041
118	0xbd1905a0	-0.03735888
119	0xbc614117	-0.013748429
120	0xbdda9720	-0.10673356
121	0xbb8a5bef	-0.004222385
122	0xbe2d5961	-0.16928627
123	0xbd9a4c8e	-0.07534133
124	0xbddb4903	-0.10707285
125	0xbd4f9030	-0.050674617
126	0xbdbd7fce	-0.092528924
127	0x3e37beae	0.17943832
128	0x3d3c2354	0.04593213
129	0xbd9ecd93	-0.07754054
130	0x3e04f74a	0.12984958
131	0x3ce11a65	0.027478406
132	0x3ccc56fc	0.024943821
133	0xbe8ea91f	-0.27863404
134	0x3e18e2e1	0.14930297
135	0xbce7e3b4	-0.02830682
136	0xbd85c5bb	-0.06531855
137	0x3e20b25f	0.15693043
138	0xbc12354a	-0.008923838
139	0xbe4cee27	-0.20012723
140	0x3e5125fd	0.20424648
141	0x3d3d0512	0.046147414
142	0xbd281bd5	-0.041042168
143	0x3e23e8b8	0.16006744
144	0xbd82e8c0	-0.0639205
145	0x3c2316d4	0.009954173
146	0x3e1ea7f5	0.15493758
147	0xbdf86bdb	-0.12129947
148	0x3e707ccb	0.23485105
149	0x3d1a8ce0	0.037732005
150	0x3e1b0567	0.1513878
151	0x3cabea30	0.020985693
152	0x3d7f4a0f	0.062326487
153	0x3e38ffdf	0.18066357
154	0xbe1aee98	-0.15130079
155	0xbe9a2089	-0.30102947
156	0xbf0bf7ec	-0.54675174
157	0x3d4ba20e	0.049715094
158	0xbd986991	-0.0744201
159	0xbd6243d3	-0.055240463
160	0xbd84b113	-0.06479087
161	0x3df03942	0.11729671
162	0xbde9677d	-0.11396692
163	0x3d8834da	0.06650706
164	0xbc3c976e	-0.011510713
165	0xbe83587a	-0.2565344
166	0x3e4ea027	0.20178281
167	0x3dbf11d1	0.0932957
168	0x3d2adc60	0.041714072
169	0xbe13037e	-0.14356801
170	0xbd37ea87	-0.044901397
171	0xbd8932ec	-0.06699166
172	0x3c80a634	0.015704252
173	0xbb8e05dd	-0.004334195
174	0x3b8c644f	0.0042844187
175	0x3e3716f4	0.1787985
176	0x3d0c8387	0.03430512
177	0x3e903c1a	0.28170854
178	0xbd17eabd	-0.0370891
179	0x3de23a09	0.110462256
180	0x3cb757c4	0.022380717
181	0xbd357ea3	-0.044310223
182	0xbdb678b1	-0.08909739
183	0x3d342551	0.0439809
184	0xbd5a6215	-0.053316195
185	0xbb979c94	-0.00462682
186	0xbd82a5af	-0.06379258
187	0xbec31961	-0.381053
188	0xbc3461a8	-0.011009611
189	0x3ce4d0c0	0.027931571
190	0x3e606683	0.21914105
191	0xb80de1d6	-3.3827346e-05
192	0x3db50319	0.088384815
193	0x3cff8351	0.031190546
194	0x3c593b70	0.0132588
195	0x3e96411a	0.29346544
196	0x3c90228a	0.017594595
197	0xbd26dbc0	-0.040736914
198	0xbe2aef0b	-0.1669275
199	0xbe9897d0	-0.29803324
200	0x3e3d2859	0.18472423
201	0x3c8189a5	0.015812704
202	0xbd85be9b	-0.06530496
203	0x3dee096f	0.11622893
204	0x3da4a006	0.080383345
205	0x3d921312	0.071325436
206	0xbd0cd601	-0.034383778
207	0xbe6bec10	-0.2303927
208	0xbe3e32ef	-0.18574117
209	0xbc2f1fd9	-0.010688745
210	0xbdee3249	-0.11630685
211	0x3df102c8	0.117681086
212	0xbbccc9b7	-0.006249632
213	0x3e124ea4	0.14287812
214	0x3d9c637f	0.07636165
215	0x3c62183f	0.013799726
216	0xbcdbb328	-0.026818827
217	0xbac55983	-0.0015056584
218	0x3de05bcd	0.109550096
219	0xbc51200f	-0.012763991
220	0xbe47f993	-0.19528799
221	0x3da683eb	0.0813063
222	0x3de608f0	0.112321734
223	0x3d942fee	0.07235704
224	0xbd98a939	-0.07454152
225	0xbc96c282	-0.018403295
226	0xbdedeb97	-0.11617201
227	0xbdd0d3ad	-0.10196624
228	0x3dc21974	0.09477511
229	0x3da8bb11	0.08238805
230	0x3dccb22e	0.099949226
231	0xbe086f01	-0.13323595
232	0x3d9a2c51	0.07527984
233	0x3d510185	0.05102684
234	0xbded7b4e	-0.11595784
235	0xbda8cdc2	-0.0824237
236	0xbc26d739	-0.010183149
237	0x3d8b581b	0.06803914
238	0xbd2fa258	-0.042879432
239	0x3c57e4d5	0.013177116
240	0x3d59eef2	0.05320639
241	0x3cfe1419	0.031015443
242	0x3dd49a08	0.10380942
243	0x3ce6e046	0.028183114
244	0xbc5ed795	-0.013601203
245	0xbeae66d9	-0.34062842
246	0x3b636ef0	0.0034703575
247	0xbcc63150	-0.024193436
248	0xbd33e2b6	-0.04391738
249	0x3dfc7ca5	0.123284616
250	0xbd9bf362	-0.07614781
251	0x3df228f1	0.11824215
252	0x3c5aa3b2	0.013344692
253	0xbd02301a	-0.031784154
254	0xbc249961	-0.010046334
255	0x3da7b39b	0.08188554

hidden.weight_hh_l1 f4 [384, 128]
0	0x3cf536ef	0.029933421
1	0xbb9f8297	-0.0048678624
2	0xbd34df75	-0.044158418
3	0xbd9ab875	-0.07554714
4	0x3d4b1c0e	0.049587302
5	0x3cfea36f	0.03108379
6	0xbd0b0d2c	-0.03394811
7	0xbdeb5773	-0.11491289
8	0xbcc1d58a	-0.023661394
9	0xbd9176dc	-0.07102749
10	0xbbe521d8	-0.00699256
11	0xbd84dbc3	-0.06487229
12	0xbc6843dd	-0.014176336
13	0xbd8ab129	-0.06772072
14	0xbcb504f1	-0.022097083
15	0x3df14ae0	0.117818594
16	0x3d03e9b9	0.032205317
17	0xbd0a2ed7	-0.033736076
18	0x3d2f65e2	0.042821772
19	0x3d9ecab9	0.0775351
20	0x3d4d3771	0.0501017
21	0xbd07c846	-0.03314998
22	0x3d904769	0.070448704
23	0x3db6bcf9	0.089227624
24	0xbd6753ed	-0.056476522
25	0xbc45dbfe	-0.012076376
26	0xb9c40ecb	-0.00037395055
27	0xbd5f5497	-0.05452403
28	0x3a68b05f	0.0008876379
29	0xbc47cd84	-0.012194995
30	0xbd8d771e	-0.069074854
31	0xbd8308c0	-0.06398153
32	0x3c73cf36	0.014880946
33	0xbd72f273	-0.05931325
34	0xbb8fc7cc	-0.0043878313
35	0xbdab7064	-0.08371046
36	0xba9dcd68	-0.0012039365
37	0x3d78f904	0.060784355
38	0xbd0c520b	-0.03425793
39	0x3da4c8b0	0.080460906
40	0xbccbf458	-0.024896786
41	0x3ca015ee	0.019541707
42	0x3dc8fdb9	0.09814019
43	0xbda3b0e5	-0.07992724
44	0x3d20845f	0.03918874
45	0xbda3a69c	-0.079907626
46	0x3cce377c	0.025172941
47	0xbd81f4da	-0.0634553
48	0xbd923746	-0.07139449
49	0x3dfe7f5a	0.12426634
50	0xbda3f938	-0.08006519
51	0xbd668acf	-0.056284722
52	0xbd3e0030	-0.046386898
53	0x3d409876	0.047020398
54	0xbd316e06	-0.043317817
55	0x3d8cac80	0.06868839
56	0xbd4af78e	-0.049552493
57	0xbbb70f7d	-0.005586563
58	0xbd838244	-0.064213306
59	0xbd02ec9c	-0.03196393
60	0xbd9e58ca	-0.07731779
61	0xbcd7b6b8	-0.026332244
62	0x3c9a5e84	0.018843897
63	0x3d20393e	0.03911709
64	0x3cebd53a	0.028788198
65	0x3d10be07	0.035337474
66	0x3cb843a5	0.022493193
67	0xbd2fd048	-0.04292324
68	0xbcbe3a9c	-0.023221307
69	0x3d0788e6	0.03308954
70	0x3e3220a5	0.17395265
71	0x3d00ba51	0.031427685
72	0x3d0f3260	0.03496015
73	0x3d7bb6dc	0.061453685
74	0xbd279a7d	-0.040918816
75	0xbd2c4841	-0.042061094
76	0x3d6845a8	0.056707054
77	0xbc7bcd36	-0.01536875
78	0x3c87ccca	0.016577143
79	0xbdb6af59	-0.08920164
80	0x3d29e9b9	0.04148266
81	0xbd98da99	-0.07463569
82	0xbdb3c815	-0.08778397
83	0x3d8f62fe	0.07001303
84	0x3d961d90	0.07329857
85	0xbd1321a8	-0.03592077
86	0x3c806fbd	0.015678281
87	0xbd708f6e	-0.058730535
88	0xbb6b1ebb	-0.003587647
89	0xbaa54ee0	-0.0012612008
90	0xbd98ff7a	-0.07470603
91	0xbdb03f56	-0.0860583
92	0x3d85d68c	0.06535062
93	0xbd95f05a	-0.07321234
94	0x3c3e39df	0.011610477
95	0x3c3e7907	0.011625535
96	0xbbb8f561	-0.005644486
97	0xbd7003b8	-0.058597296
98	0x3cbd5e67	0.023116304
99	0x3d0c5e8f	0.034269866
100	0x3cc5a71d	0.024127537
101	0xbd938043	-0.07202198
102	0xbaec1d60	-0.0018014126
103	0xbce0858a	-0.027407426
104	0xbdeabafa	-0.11461444
105	0xbd9213c5	-0.07132677
106	0x3c9a5c98	0.01884298
107	0xbb62de3e	-0.003461733
108	0x3c960b3d	0.018315906
109	0x3ca622f3	0.020280337
110	0xbca9c4df	-0.020723758
111	0xbbf38048	-0.007431064
112	0x3de75303	0.1129513
113	0xbd9d433a	-0.07678838
114	0x3dd925ab	0.10602888
115	0xbd35a5cf	-0.04434758
116	0xbd5a4b5b	-0.05329452
117	0xbd8e20a6	-0.06939821
118	0x3aed424a	0.0018101421
119	0xbc3ee23c	-0.011650618
120	0x3dadb9f9	0.08482737
121	0x3a5a2947	0.0008322191
122	0x3c0338fa	0.00800919
123	0x3d9ea0ff	0.07745551
124	0xbd351593	-0.044210028
125	0x3d986268	0.074406445
126	0x3dae0504	0.084970504
127	0x3dfc14a4	0.123086244
128	0x3beb9e3d	0.0071904943
129	0xbbaa70c3	-0.0052014305
130	0x3dfaa5bb	0.12238642
131	0x3da2f5d6	0.07957046
132	0x3d4d8ccd	0.050183106
133	0xbb7edc04	-0.0038888464
134	0x3b56b0ac	0.0032759113
135	0xbea43c18	-0.32077098
136	0x3d279c9e	0.040920846
137	0xbd0947ae	-0.033515625
138	0x3d180927	0.037118103
139	0xbbb748c4	-0.005593391
140	0xbda6b04f	-0.08139097
141	0xbd7dd43a	-0.061969973
142	0x3c385fa8	0.011253275
143	0x3dfdda8e	0.123952016
144	0xbd3d777d	-0.04625653
145	0x3d0d4b08	0.034495384
146	0xbd400c8e	-0.046886973
147	0xbdb73a7e	-0.089467034
148	0xbda3f3b4	-0.08005467
149	0x3de6cf5a	0.11270018
150	0x3d505d26	0.050870083
151	0x3c87ac6e	0.016561713
152	0x3ca71b14	0.020398654
153	0xbe6eb282	-0.23310283
154	0xbd00c895	-0.03144129
155	0x3d45b213	0.048265528
156	0xbc967dc4	-0.018370517
157	0x3d9ef93b	0.07762381
158	0xbd8fd8ae	-0.0702375
159	0x3de17b32	0.11009826
160	0xbd2fce5e	-0.042921416
161	0xbbf63a79	-0.0075142947
162	0x3d2c0fa4	0.042007104
163	0xbc4c620f	-0.012474551
164	0xbd81b934	-0.06334153
165	0xbcbab5d4	-0.02279178
166	0x3db13af3	0.08653822
167	0x3a344ea6	0.00068781746
168	0xbd012bab	-0.031535786
169	0x3cdc461f	0.026888905
170	0x3e25b267	0.16181336
171	0xbdc939a3	-0.098254465
172	0xbe1e96be	-0.15487191
173	0x3c86262e	0.016375627
174	0xbd067b10	-0.032832205
175	0x3d6b2df8	0.057416886
176	0x3d81e901	0.0634327
177	0xbbdc410f	-0.006721623
178	0x3c3ecd41	0.011645616
179	0xbdab32bc	-0.08359286
180	0xbd64fbda	-0.055904247
181	0x3d9530ee	0.07284723
182	0x3da326cf	0.079663865
183	0x3d444e74	0.04792638
184	0x3e27cf80	0.16387749
185	0xbd5c8101	-0.053833965
186	0x3e1936a3	0.14962249
187	0xbd70e666	-0.058813475
188	0x3b348772	0.0027546552
189	0xbd081943	-0.033227216
190	0x3d766f24	0.060164586
191	0x3d8d76e6	0.06907444
192	0x3d0a350a	0.03374199
193	0xbb378032	-0.0027999994
194	0x39b4462d	0.0003438456
195	0xbd61789a	-0.055046655
196	0x3d9a1aa9	0.07524616
197	0xbcd5e26b	-0.026108941
198	0xbd0f4ac2	-0.034983404
199	0x3da05894	0.07829395
200	0x3e73cebf	0.23809336
201	0xbbd04454	-0.0063558016
202	0xbd03617e	-0.032075398
203	0xbeb3cab4	-0.35115588
204	0x3e8e0977	0.27741596
205	0xbcb89df3	-0.022536254
206	0x3c0b0cdc	0.008486953
207	0x3b938b15	0.004502664
208	0x3d941ce3	0.07232072
209	0x3d20c70f	0.039252337
210	0x3b9435ef	0.004523031
211	0xbdd5dd8f	-0.104426496
212	0xbd0bff17	-0.03417882
213	0xbd18620e	-0.037202887
214	0xbcde6e8e	-0.027152326
215	0xbddee5cd	-0.10883675
216	0x3d964cba	0.07338853
217	0xbd551ba0	-0.0520283
218	0x3d20f6dd	0.039297927
219	0xbd826967	-0.0636776
220	0xbe0de689	-0.13857473
221	0x3c562c54	0.013072092
222	0xbdccc9e5	-0.09999446
223	0x3e0c2619	0.13686408
224	0x3c9136b2	0.017726276
225	0xbd464e31	-0.048414413
226	0x3d6e1c6e	0.05813258
227	0x3ddca539	0.10773701
228	0x3e030078	0.12793148
229	0x3d85d09f	0.06533932
230	0xbdc564c2	-0.09638359
231	0xbd83326b	-0.06406101
232	0x3c9db22c	0.019249998
233	0xbd203e50	-0.039121926
234	0x3d5d2d92	0.053998537
235	0xbdfbcdde	-0.122951254
236	0xbbab98ea	-0.0052367346
237	0xbd59ced0	-0.053175747
238	0xbdc96d9c	-0.098353595
239	0x3d439fe0	0.04775989
240	0xbe2f5450	-0.17122006
241	0x3e076281	0.1322117
242	0xbe71712f	-0.23578332
243	0xbe808505	-0.25101486
244	0xbc57f723	-0.013181481
245	0xbddc59b5	-0.10759298
246	0x3d855ab9	0.065114446
247	0xbea81bca	-0.328337
248	0xbe19d902	-0.15024188
249	0x3e35ab83	0.17741208
250	0xbe6b2842	-0.22964576
251	0xbcdb59f6	-0.026776295
252	0xbd689259	-0.056780193
253	0x3e1a5fd7	0.15075622
254	0x3e2c255c	0.16811126
255	0xbe9e0fa6	-0.30871314

hidden.bias_ih_l1 f4 [384]
0	0x3dd13374	0.10214892
1	0x3c95dc2f	0.018293468
2	0xbd9d0da9	-0.07668621
3	0x3c120990	0.008913413
4	0x3d96fced	0.073724605
5	0xbca8a159	-0.020584749
6	0xbd9d0c21	-0.07668329
7	0x3c15da1a	0.009146238
8	0xbc8f17d4	-0.017467417
9	0x3ce6eca5	0.028189013
10	0x3d0bc9ca	0.034127988
11	0xbce5b7a4	-0.028041668
12	0x3b8de8fd	0.004330753
13	0xbb52bb6f	-0.0032155176
14	0x3d931b8f	0.07182991
15	0x3dac7c5c	0.08422157
16	0x3db484d2	0.08814396
17	0xbd5e4d63	-0.05427302
18	0x3c8fb9e0	0.017544687
19	0x3db89cec	0.090143055
20	0xbcd60892	-0.026127134
21	0xbdc41510	-0.0957433
22	0x3d14070a	0.036139525
23	0x3d19995e	0.037499778
24	0x3d061dec	0.03274338
25	0x3af8b472	0.0018974675
26	0xbd377f41	-0.044799093
27	0xbd86d3e3	-0.06583383
28	0x3d4caf14	0.049971655
29	0xbd927f05	-0.07153133
30	0x3cc42b9e	0.02394658
31	0x3c77d3f7	0.01512622
32	0xbc8493d8	-0.016183779
33	0x3d8f4b56	0.06996791
34	0xbacdecfe	-0.0015710888
35	0xbda270f4	-0.079317
36	0x3cfcb09d	0.030845935
37	0x3d7b4bde	0.06135165
38	0x3d965e03	0.0734215
39	0xbc6081ee	-0.013702853
40	0x3dc933df	0.09824347
41	0x3d642fa2	0.05570949
42	0xbd0df2e6	-0.034655474
43	0x3d621ae6	0.055201434
44	0x3d9ab8b7	0.07554763
45	0xbd52cffd	-0.051467884
46	0xbbdfe0d8	-0.0068322234
47	0x3d3b9480	0.045795918
48	0xbc98970d	-0.018626714
49	0x3d128e5d	0.0357803
50	0x3d642242	0.055696733
51	0xbcd46483	-0.025926834
52	0xbced6ecd	-0.028983498
53	0x3daa78b9	0.08323807
54	0x3cb24004	0.02175904
55	0xbc845621	-0.01615435
56	0xbc128d60	-0.008944839
57	0x3d7d3a2b	0.06182305
58	0xbd534b64	-0.05158557
59	0x3d860c7f	0.06545352
60	0xbd4fdf09	-0.050749812
61	0x3d7e8c8f	0.062145766
62	0x3cb7926d	0.022408688
63	0x3d710558	0.058842987
64	0x3d536b95	0.05161627
65	0xbce372e0	-0.027764738
66	0xbd2ca719	-0.042151544
67	0x3d68747a	0.056751706
68	0xbdbd5897	-0.09245413
69	0x3d919893	0.07109179
70	0xbdb19a23	-0.08671977
71	0xbc875021	-0.0165177
72	0xbd51e3f5	-0.051242787
73	0xbd3669da	-0.04453454
74	0x3c8fe5bd	0.017565602
75	0xbd723c2e	-0.059139423
76	0xbcb3cdfb	-0.021948805
77	0x3bd1a411	0.006397732
78	0xbc0a758b	-0.008450876
79	0xbc539b51	-0.012915448
80	0x3dbfc396	0.09363477
81	0x3d78d754	0.060752228
82	0xbd3ab496	-0.045582376
83	0xbb1fddd4	-0.0024393694
84	0x3d8307e0	0.063979864
85	0xbcbeae65	-0.023276517
86	0xbd81c439	-0.063362546
87	0x3cbd9c08	0.02314569
88	0x3d0ba40f	0.034092005
89	0x3c99b79c	0.01876431
90	0xbd4fe209	-0.050752673
91	0xbda40fd6	-0.08010833
92	0xbd7f3b8d	-0.06231265
93	0xbd009624	-0.031393185
94	0xbdbe5f59	-0.0929553
95	0x3b02a736	0.0019936091
96	0x3cddb624	0.02706439
97	0x3d1db3ab	0.038501423
98	0xbda8725d	-0.08224938
99	0x3cde2f4b	0.02712216
100	0xbd037e3b	-0.032102805
101	0xbcc27499	-0.023737239
102	0x3da8487d	0.08216951
103	0x3d415f8f	0.047210272
104	0xbdb0f09c	-0.086396426
105	0xbda07f5b	-0.07836791
106	0x3d870973	0.06593599
107	0xbda19b33	-0.0789093
108	0xbd6b73df	-0.05748355
109	0x3d1f3234	0.038866237
110	0x3d8847d6	0.066543266
111	0x3c8b8ab3	0.01703391
112	0x3db7a340	0.08966684
113	0x3b9f8d79	0.00486916
114	0xbda4a8dd	-0.080400206
115	0x3d34dd8e	0.044156604
116	0x3d6d42da	0.057925083
117	0xbd7025d0	-0.05862981
118	0xbd3d2e1d	-0.046186555
119	0x3da5fac8	0.08104473
120	0x3d7acfbe	0.061233275
121	0x3a7d32da	0.00096587616
122	0x3d937aed	0.072011806
123	0x3d269f33	0.040679168
124	0x3dbcdb4b	0.09221514
125	0x3d671f73	0.056426477
126	0xbc7e2627	-0.015512026
127	0x3d16b507	0.036793735
128	0xbe1be9f3	-0.15225963
129	0x3d26474d	0.04059534
130	0xbc7507be	-0.014955459
131	0xbd319b94	-0.04336126
132	0xbeba9359	-0.36440542
133	0xbdd6100d	-0.1045228
134	0x3d4cc2fd	0.049990643
135	0x3d33f786	0.04393723
136	0x3d344cc2	0.044018514
137	0xbd96e444	-0.07367757
138	0xbe32c766	-0.17458877
139	0x3b658f4e	0.0035028043
140	0xbdcecfac	-0.10098204
141	0x3e1f7b66	0.15574417
142	0x3d8e3b75	0.06944934
143	0xbd02fb98	-0.03197822
144	0xbd5646e3	-0.052313697
145	0x3d8e10e2	0.06936814
146	0xbcd37862	-0.025814239
147	0xbe95e898	-0.29279017
148	0x3d220ce8	0.03956309
149	0x3ddf28f8	0.10896486
150	0x3d5a00b1	0.053223316
151	0xbd034267	-0.032045748
152	0xbd9de872	-0.07710351
153	0x3e0f60de	0.14001796
154	0xbb3303f2	-0.0027315584
155	0xbde59b99	-0.112113185
156	0xbcac6ea3	-0.02104885
157	0x3cdd8835	0.027042488
158	0x3dc664fe	0.096872315
159	0x3cdcf498	0.0269721
160	0x3d379dd9	0.04482827
161	0x3d420920	0.047371984
162	0xbe1162e7	-0.14197885
163	0x3debf182	0.11520673
164	0xbd4b7d46	-0.049680017
165	0x3e11357e	0.14180562
166	0x3decbf4f	0.11559927
167	0x3ceb410c	0.02871754
168	0x3ca6bc39	0.020353423
169	0xbc8a4f9b	-0.016883662
170	0xbe0d61f0	-0.13806891
171	0xbd4dae0f	-0.050214823
172	0xbd97b460	-0.07407451
173	0x3e15df87	0.1463605
174	0xbdc2031a	-0.09473248
175	0xbda0ca30	-0.07851064
176	0xbdaee48a	-0.08539684
177	0xbee9424c	-0.45558393
178	0xbb8cc7ac	-0.0042962637
179	0x3db0233f	0.08600473
180	0xbdb0405e	-0.08606027
181	0xbc9a5be5	-0.018842647
182	0xbe83c858	-0.25738788
183	0xbe186d6c	-0.14885491
184	0x3dbc97da	0.09208651
185	0xbd594825	-0.053047318
186	0xbe2738b4	-0.16330224
187	0xbd9e47eb	-0.07728561
188	0xbd68f435	-0.05687352
189	0xbcce6575	-0.025194863
190	0xbdba786f	-0.09105002
191	0x3e48b4ab	0.1960017
192	0x3d7a8ae9	0.06116763
193	0xbd7be814	-0.061500624
194	0xbe03a8bd	-0.12857337
195	0xbba05554	-0.0048929844
196	0x3cee8b7d	0.029119248
197	0x3d1d22d9	0.03836331
198	0x3d4ed205	0.05049326
199	0x3d08463f	0.033270117
200	0x3e8b0f3b	0.27160057
201	0xbe0e592b	-0.13901202
202	0xbd99bdf4	-0.07506934
203	0xbc0396a0	-0.008031517
204	0x3dce35ee	0.1006888
205	0xbcc2253b	-0.023699393
206	0x3db2640e	0.0871049
207	0xbe504782	-0.20339778
208	0xbc3dea05	-0.011591439
209	0xbd621195	-0.05519255
210	0x3c800b1a	0.015630294
211	0x3e0efce7	0.13963662
212	0x3e00c62a	0.12575594
213	0xbd21fdcb	-0.039548676
214	0xbd37df8a	-0.044890918
215	0x3caa8324	0.020814486
216	0xbd128c1b	-0.035778146
217	0x3dbdfc03	0.09276583
218	0x3d21e05b	0.039520603
219	0x3cddfa2a	0.027096827
220	0x3d667174	0.05626054
221	0xbd29e66d	-0.041479517
222	0x3dabaa60	0.08382106
223	0x3dee3ced	0.116327144
224	0x3dc93b8f	0.09825813
225	0xbdde7e68	-0.10863954
226	0xbae9db60	-0.0017841868
227	0x3e416378	0.188856
228	0x3eb2489f	0.3482103
229	0xbce53075	-0.027977208
230	0x3d71af62	0.05900515
231	0x3cee9a06	0.029126178
232	0x3df249c6	0.118304774
233	0x3c470925	0.012148176
234	0xbd823532	-0.063578025
235	0x3e02569c	0.12728351
236	0xbd3b76c1	-0.04576755
237	0xbde47c81	-0.1115656
238	0x3e46bc2b	0.19407718
239	0xbdd1b678	-0.10239881
240	0xbd525eb4	-0.051359847
241	0x3c3c431f	0.011490612
242	0xbc86650d	-0.016405607
243	0x3c11f61e	0.008908777
244	0xbd8068f8	-0.06270021
245	0x3de0799d	0.10960696
246	0x3dad1009	0.08450324
247	0x3d7fb488	0.062428027
248	0x3dabb6ea	0.083844975
249	0xbde0212a	-0.109438255
250	0x3e1131ba	0.14179125
251	0xbc41406a	-0.011795143
252	0xbddb635b	-0.1071231
253	0x3e012ed7	0.12615524
254	0x3e17e48a	0.14833274
255	0x3e1bd73f	0.15218829
